…
I0816 10:11:00.949506 20528 upgrade_proto.cpp:67] Attempting to upgrade input file specified using deprecated input fields: model/det1.prototxt
I0816 10:11:00.949668 20528 upgrade_proto.cpp:70] Successfully upgraded file specified using deprecated input fields.
W0816 10:11:00.949677 20528 upgrade_proto.cpp:72] Note that future Caffe releases will only support input layers and not input fields.
I0816 10:11:00.949949 20528 net.cpp:58] Initializing net from parameters: 
name: "PNet"
state {
  phase: TEST
  level: 0
}
layer {
  name: "input"
  type: "Input"
  top: "data"
  input_param {
    shape {
      dim: 1
      dim: 3
      dim: 12
      dim: 12
    }
  }
}
layer {
  name: "conv1"
  type: "Convolution"
  bottom: "data"
  top: "conv1"
  param {
    lr_mult: 1
    decay_mult: 1
  }
  param {
    lr_mult: 2
    decay_mult: 0
  }
  convolution_param {
    num_output: 10
    kernel_size: 3
    stride: 1
    weight_filler {
      type: "xavier"
    }
    bias_filler {
      type: "constant"
      value: 0
    }
  }
}
layer {
  name: "PReLU1"
  type: "PReLU"
  bottom: "conv1"
  top: "conv1"
}
layer {
  name: "pool1"
  type: "Pooling"
  bottom: "conv1"
  top: "pool1"
  pooling_param {
    pool: MAX
    kernel_size: 2
    stride: 2
  }
}
layer {
  name: "conv2"
  type: "Convolution"
  bottom: "pool1"
  top: "conv2"
  param {
    lr_mult: 1
    decay_mult: 1
  }
  param {
    lr_mult: 2
    decay_mult: 0
  }
  convolution_param {
    num_output: 16
    kernel_size: 3
    stride: 1
    weight_filler {
      type: "xavier"
    }
    bias_filler {
      type: "constant"
      value: 0
    }
  }
}
layer {
  name: "PReLU2"
  type: "PReLU"
  bottom: "conv2"
  top: "conv2"
}
layer {
  name: "conv3"
  type: "Convolution"
  bottom: "conv2"
  top: "conv3"
  param {
    lr_mult: 1
    decay_mult: 1
  }
  param {
    lr_mult: 2
    decay_mult: 0
  }
  convolution_param {
    num_output: 32
    kernel_size: 3
    stride: 1
    weight_filler {
      type: "xavier"
    }
    bias_filler {
      type: "constant"
      value: 0
    }
  }
}
layer {
  name: "PReLU3"
  type: "PReLU"
  bottom: "conv3"
  top: "conv3"
}
layer {
  name: "conv4-1"
  type: "Convolution"
  bottom: "conv3"
  top: "conv4-1"
  param {
    lr_mult: 1
    decay_mult: 1
  }
  param {
    lr_mult: 2
    decay_mult: 0
  }
  convolution_param {
    num_output: 2
    kernel_size: 1
    stride: 1
    weight_filler {
      type: "xavier"
    }
    bias_filler {
      type: "constant"
      value: 0
    }
  }
}
layer {
  name: "conv4-2"
  type: "Convolution"
  bottom: "conv3"
  top: "conv4-2"
  param {
    lr_mult: 1
    decay_mult: 1
  }
  param {
    lr_mult: 2
    decay_mult: 0
  }
  convolution_param {
    num_output: 4
    kernel_size: 1
    stride: 1
    weight_filler {
      type: "xavier"
    }
    bias_filler {
      type: "constant"
      value: 0
    }
  }
}
layer {
  name: "prob1"
  type: "Softmax"
  bottom: "conv4-1"
  top: "prob1"
}
I0816 10:11:00.950101 20528 layer_factory.hpp:77] Creating layer input
I0816 10:11:00.950124 20528 net.cpp:100] Creating Layer input
I0816 10:11:00.950135 20528 net.cpp:408] input -> data
I0816 10:11:00.962855 20528 net.cpp:150] Setting up input
I0816 10:11:00.962913 20528 net.cpp:157] Top shape: 1 3 12 12 (432)
I0816 10:11:00.962919 20528 net.cpp:165] Memory required for data: 1728
I0816 10:11:00.962930 20528 layer_factory.hpp:77] Creating layer conv1
I0816 10:11:00.962957 20528 net.cpp:100] Creating Layer conv1
I0816 10:11:00.962965 20528 net.cpp:434] conv1 <- data
I0816 10:11:00.962977 20528 net.cpp:408] conv1 -> conv1
I0816 10:11:01.297075 20528 net.cpp:150] Setting up conv1
I0816 10:11:01.297134 20528 net.cpp:157] Top shape: 1 10 10 10 (1000)
I0816 10:11:01.297142 20528 net.cpp:165] Memory required for data: 5728
I0816 10:11:01.297183 20528 layer_factory.hpp:77] Creating layer PReLU1
I0816 10:11:01.297201 20528 net.cpp:100] Creating Layer PReLU1
I0816 10:11:01.297207 20528 net.cpp:434] PReLU1 <- conv1
I0816 10:11:01.297215 20528 net.cpp:395] PReLU1 -> conv1 (in-place)
I0816 10:11:01.297358 20528 net.cpp:150] Setting up PReLU1
I0816 10:11:01.297368 20528 net.cpp:157] Top shape: 1 10 10 10 (1000)
I0816 10:11:01.297372 20528 net.cpp:165] Memory required for data: 9728
I0816 10:11:01.297382 20528 layer_factory.hpp:77] Creating layer pool1
I0816 10:11:01.297394 20528 net.cpp:100] Creating Layer pool1
I0816 10:11:01.297400 20528 net.cpp:434] pool1 <- conv1
I0816 10:11:01.297407 20528 net.cpp:408] pool1 -> pool1
I0816 10:11:01.297463 20528 net.cpp:150] Setting up pool1
I0816 10:11:01.297473 20528 net.cpp:157] Top shape: 1 10 5 5 (250)
I0816 10:11:01.297478 20528 net.cpp:165] Memory required for data: 10728
I0816 10:11:01.297483 20528 layer_factory.hpp:77] Creating layer conv2
I0816 10:11:01.297498 20528 net.cpp:100] Creating Layer conv2
I0816 10:11:01.297503 20528 net.cpp:434] conv2 <- pool1
I0816 10:11:01.297511 20528 net.cpp:408] conv2 -> conv2
I0816 10:11:01.299871 20528 net.cpp:150] Setting up conv2
I0816 10:11:01.299892 20528 net.cpp:157] Top shape: 1 16 3 3 (144)
I0816 10:11:01.299897 20528 net.cpp:165] Memory required for data: 11304
I0816 10:11:01.299911 20528 layer_factory.hpp:77] Creating layer PReLU2
I0816 10:11:01.299921 20528 net.cpp:100] Creating Layer PReLU2
I0816 10:11:01.299926 20528 net.cpp:434] PReLU2 <- conv2
I0816 10:11:01.299933 20528 net.cpp:395] PReLU2 -> conv2 (in-place)
I0816 10:11:01.300032 20528 net.cpp:150] Setting up PReLU2
I0816 10:11:01.300042 20528 net.cpp:157] Top shape: 1 16 3 3 (144)
I0816 10:11:01.300047 20528 net.cpp:165] Memory required for data: 11880
I0816 10:11:01.300055 20528 layer_factory.hpp:77] Creating layer conv3
I0816 10:11:01.300066 20528 net.cpp:100] Creating Layer conv3
I0816 10:11:01.300072 20528 net.cpp:434] conv3 <- conv2
I0816 10:11:01.300079 20528 net.cpp:408] conv3 -> conv3
I0816 10:11:01.302392 20528 net.cpp:150] Setting up conv3
I0816 10:11:01.302410 20528 net.cpp:157] Top shape: 1 32 1 1 (32)
I0816 10:11:01.302417 20528 net.cpp:165] Memory required for data: 12008
I0816 10:11:01.302428 20528 layer_factory.hpp:77] Creating layer PReLU3
I0816 10:11:01.302435 20528 net.cpp:100] Creating Layer PReLU3
I0816 10:11:01.302441 20528 net.cpp:434] PReLU3 <- conv3
I0816 10:11:01.302449 20528 net.cpp:395] PReLU3 -> conv3 (in-place)
I0816 10:11:01.302546 20528 net.cpp:150] Setting up PReLU3
I0816 10:11:01.302554 20528 net.cpp:157] Top shape: 1 32 1 1 (32)
I0816 10:11:01.302559 20528 net.cpp:165] Memory required for data: 12136
I0816 10:11:01.302570 20528 layer_factory.hpp:77] Creating layer conv3_PReLU3_0_split
I0816 10:11:01.302583 20528 net.cpp:100] Creating Layer conv3_PReLU3_0_split
I0816 10:11:01.302588 20528 net.cpp:434] conv3_PReLU3_0_split <- conv3
I0816 10:11:01.302595 20528 net.cpp:408] conv3_PReLU3_0_split -> conv3_PReLU3_0_split_0
I0816 10:11:01.302603 20528 net.cpp:408] conv3_PReLU3_0_split -> conv3_PReLU3_0_split_1
I0816 10:11:01.302645 20528 net.cpp:150] Setting up conv3_PReLU3_0_split
I0816 10:11:01.302654 20528 net.cpp:157] Top shape: 1 32 1 1 (32)
I0816 10:11:01.302659 20528 net.cpp:157] Top shape: 1 32 1 1 (32)
I0816 10:11:01.302664 20528 net.cpp:165] Memory required for data: 12392
I0816 10:11:01.302670 20528 layer_factory.hpp:77] Creating layer conv4-1
I0816 10:11:01.302681 20528 net.cpp:100] Creating Layer conv4-1
I0816 10:11:01.302686 20528 net.cpp:434] conv4-1 <- conv3_PReLU3_0_split_0
I0816 10:11:01.302706 20528 net.cpp:408] conv4-1 -> conv4-1
I0816 10:11:01.304285 20528 net.cpp:150] Setting up conv4-1
I0816 10:11:01.304302 20528 net.cpp:157] Top shape: 1 2 1 1 (2)
I0816 10:11:01.304308 20528 net.cpp:165] Memory required for data: 12400
I0816 10:11:01.304318 20528 layer_factory.hpp:77] Creating layer conv4-2
I0816 10:11:01.304330 20528 net.cpp:100] Creating Layer conv4-2
I0816 10:11:01.304337 20528 net.cpp:434] conv4-2 <- conv3_PReLU3_0_split_1
I0816 10:11:01.304345 20528 net.cpp:408] conv4-2 -> conv4-2
I0816 10:11:01.305552 20528 net.cpp:150] Setting up conv4-2
I0816 10:11:01.305570 20528 net.cpp:157] Top shape: 1 4 1 1 (4)
I0816 10:11:01.305577 20528 net.cpp:165] Memory required for data: 12416
I0816 10:11:01.305585 20528 layer_factory.hpp:77] Creating layer prob1
I0816 10:11:01.305601 20528 net.cpp:100] Creating Layer prob1
I0816 10:11:01.305608 20528 net.cpp:434] prob1 <- conv4-1
I0816 10:11:01.305615 20528 net.cpp:408] prob1 -> prob1
I0816 10:11:01.306249 20528 net.cpp:150] Setting up prob1
I0816 10:11:01.306265 20528 net.cpp:157] Top shape: 1 2 1 1 (2)
I0816 10:11:01.306270 20528 net.cpp:165] Memory required for data: 12424
I0816 10:11:01.306277 20528 net.cpp:228] prob1 does not need backward computation.
I0816 10:11:01.306282 20528 net.cpp:228] conv4-2 does not need backward computation.
I0816 10:11:01.306288 20528 net.cpp:228] conv4-1 does not need backward computation.
I0816 10:11:01.306293 20528 net.cpp:228] conv3_PReLU3_0_split does not need backward computation.
…
I0816 10:11:01.307085 20528 upgrade_proto.cpp:67] Attempting to upgrade input file specified using deprecated input fields: model/det2.prototxt
I0816 10:11:01.307099 20528 upgrade_proto.cpp:70] Successfully upgraded file specified using deprecated input fields.
W0816 10:11:01.307104 20528 upgrade_proto.cpp:72] Note that future Caffe releases will only support input layers and not input fields.
I0816 10:11:01.307276 20528 net.cpp:58] Initializing net from parameters: 
name: "RNet"
state {
  phase: TEST
  level: 0
}
layer {
  name: "input"
  type: "Input"
  top: "data"
  input_param {
    shape {
      dim: 1
      dim: 3
      dim: 24
      dim: 24
    }
  }
}
layer {
  name: "conv1"
  type: "Convolution"
  bottom: "data"
  top: "conv1"
  param {
    lr_mult: 0
    decay_mult: 0
  }
  param {
    lr_mult: 0
    decay_mult: 0
  }
  convolution_param {
    num_output: 28
    kernel_size: 3
    stride: 1
    weight_filler {
      type: "xavier"
    }
    bias_filler {
      type: "constant"
      value: 0
    }
  }
}
layer {
  name: "prelu1"
  type: "PReLU"
  bottom: "conv1"
  top: "conv1"
  propagate_down: true
}
layer {
  name: "pool1"
  type: "Pooling"
  bottom: "conv1"
  top: "pool1"
  pooling_param {
    pool: MAX
    kernel_size: 3
    stride: 2
  }
}
layer {
  name: "conv2"
  type: "Convolution"
  bottom: "pool1"
  top: "conv2"
  param {
    lr_mult: 0
    decay_mult: 0
  }
  param {
    lr_mult: 0
    decay_mult: 0
  }
  convolution_param {
    num_output: 48
    kernel_size: 3
    stride: 1
    weight_filler {
      type: "xavier"
    }
    bias_filler {
      type: "constant"
      value: 0
    }
  }
}
layer {
  name: "prelu2"
  type: "PReLU"
  bottom: "conv2"
  top: "conv2"
  propagate_down: true
}
layer {
  name: "pool2"
  type: "Pooling"
  bottom: "conv2"
  top: "pool2"
  pooling_param {
    pool: MAX
    kernel_size: 3
    stride: 2
  }
}
layer {
  name: "conv3"
  type: "Convolution"
  bottom: "pool2"
  top: "conv3"
  param {
    lr_mult: 0
    decay_mult: 0
  }
  param {
    lr_mult: 0
    decay_mult: 0
  }
  convolution_param {
    num_output: 64
    kernel_size: 2
    stride: 1
    weight_filler {
      type: "xavier"
    }
    bias_filler {
      type: "constant"
      value: 0
    }
  }
}
layer {
  name: "prelu3"
  type: "PReLU"
  bottom: "conv3"
  top: "conv3"
  propagate_down: true
}
layer {
  name: "conv4"
  type: "InnerProduct"
  bottom: "conv3"
  top: "conv4"
  param {
    lr_mult: 0
    decay_mult: 0
  }
  param {
    lr_mult: 0
    decay_mult: 0
  }
  inner_product_param {
    num_output: 128
    weight_filler {
      type: "xavier"
    }
    bias_filler {
      type: "constant"
      value: 0
    }
  }
}
layer {
  name: "prelu4"
  type: "PReLU"
  bottom: "conv4"
  top: "conv4"
}
layer {
  name: "conv5-1"
  type: "InnerProduct"
  bottom: "conv4"
  top: "conv5-1"
  param {
    lr_mult: 0
    decay_mult: 0
  }
  param {
    lr_mult: 0
    decay_mult: 0
  }
  inner_product_param {
    num_output: 2
    weight_filler {
      type: "xavier"
    }
    bias_filler {
      type: "constant"
      value: 0
    }
  }
}
layer {
  name: "conv5-2"
  type: "InnerProduct"
  bottom: "conv4"
  top: "conv5-2"
  param {
    lr_mult: 1
    decay_mult: 1
  }
  param {
    lr_mult: 2
    decay_mult: 1
  }
  inner_product_param {
    num_output: 4
    weight_filler {
      type: "xavier"
    }
    bias_filler {
      type: "constant"
      value: 0
    }
  }
}
layer {
  name: "prob1"
  type: "Softmax"
  bottom: "conv5-1"
  top: "prob1"
}
I0816 10:11:01.307355 20528 layer_factory.hpp:77] Creating layer input
I0816 10:11:01.307368 20528 net.cpp:100] Creating Layer input
I0816 10:11:01.307374 20528 net.cpp:408] input -> data
I0816 10:11:01.307413 20528 net.cpp:150] Setting up input
I0816 10:11:01.307423 20528 net.cpp:157] Top shape: 1 3 24 24 (1728)
I0816 10:11:01.307428 20528 net.cpp:165] Memory required for data: 6912
I0816 10:11:01.307435 20528 layer_factory.hpp:77] Creating layer conv1
I0816 10:11:01.307446 20528 net.cpp:100] Creating Layer conv1
I0816 10:11:01.307451 20528 net.cpp:434] conv1 <- data
I0816 10:11:01.307459 20528 net.cpp:408] conv1 -> conv1
I0816 10:11:01.309355 20528 net.cpp:150] Setting up conv1
I0816 10:11:01.309376 20528 net.cpp:157] Top shape: 1 28 22 22 (13552)
I0816 10:11:01.309381 20528 net.cpp:165] Memory required for data: 61120
I0816 10:11:01.309396 20528 layer_factory.hpp:77] Creating layer prelu1
I0816 10:11:01.309406 20528 net.cpp:100] Creating Layer prelu1
I0816 10:11:01.309412 20528 net.cpp:434] prelu1 <- conv1
I0816 10:11:01.309418 20528 net.cpp:395] prelu1 -> conv1 (in-place)
I0816 10:11:01.309525 20528 net.cpp:150] Setting up prelu1
I0816 10:11:01.309533 20528 net.cpp:157] Top shape: 1 28 22 22 (13552)
I0816 10:11:01.309538 20528 net.cpp:165] Memory required for data: 115328
I0816 10:11:01.309547 20528 layer_factory.hpp:77] Creating layer pool1
I0816 10:11:01.309556 20528 net.cpp:100] Creating Layer pool1
I0816 10:11:01.309561 20528 net.cpp:434] pool1 <- conv1
I0816 10:11:01.309568 20528 net.cpp:408] pool1 -> pool1
I0816 10:11:01.309610 20528 net.cpp:150] Setting up pool1
I0816 10:11:01.309619 20528 net.cpp:157] Top shape: 1 28 11 11 (3388)
I0816 10:11:01.309624 20528 net.cpp:165] Memory required for data: 128880
I0816 10:11:01.309629 20528 layer_factory.hpp:77] Creating layer conv2
I0816 10:11:01.309641 20528 net.cpp:100] Creating Layer conv2
I0816 10:11:01.309646 20528 net.cpp:434] conv2 <- pool1
I0816 10:11:01.309654 20528 net.cpp:408] conv2 -> conv2
I0816 10:11:01.311794 20528 net.cpp:150] Setting up conv2
I0816 10:11:01.311812 20528 net.cpp:157] Top shape: 1 48 9 9 (3888)
I0816 10:11:01.311818 20528 net.cpp:165] Memory required for data: 144432
I0816 10:11:01.311831 20528 layer_factory.hpp:77] Creating layer prelu2
I0816 10:11:01.311841 20528 net.cpp:100] Creating Layer prelu2
I0816 10:11:01.311846 20528 net.cpp:434] prelu2 <- conv2
I0816 10:11:01.311853 20528 net.cpp:395] prelu2 -> conv2 (in-place)
I0816 10:11:01.311969 20528 net.cpp:150] Setting up prelu2
I0816 10:11:01.311978 20528 net.cpp:157] Top shape: 1 48 9 9 (3888)
I0816 10:11:01.311985 20528 net.cpp:165] Memory required for data: 159984
I0816 10:11:01.311991 20528 layer_factory.hpp:77] Creating layer pool2
I0816 10:11:01.312000 20528 net.cpp:100] Creating Layer pool2
I0816 10:11:01.312006 20528 net.cpp:434] pool2 <- conv2
I0816 10:11:01.312013 20528 net.cpp:408] pool2 -> pool2
I0816 10:11:01.312057 20528 net.cpp:150] Setting up pool2
I0816 10:11:01.312067 20528 net.cpp:157] Top shape: 1 48 4 4 (768)
I0816 10:11:01.312072 20528 net.cpp:165] Memory required for data: 163056
I0816 10:11:01.312077 20528 layer_factory.hpp:77] Creating layer conv3
I0816 10:11:01.312088 20528 net.cpp:100] Creating Layer conv3
I0816 10:11:01.312094 20528 net.cpp:434] conv3 <- pool2
I0816 10:11:01.312101 20528 net.cpp:408] conv3 -> conv3
I0816 10:11:01.314966 20528 net.cpp:150] Setting up conv3
I0816 10:11:01.314985 20528 net.cpp:157] Top shape: 1 64 3 3 (576)
I0816 10:11:01.314990 20528 net.cpp:165] Memory required for data: 165360
I0816 10:11:01.315001 20528 layer_factory.hpp:77] Creating layer prelu3
I0816 10:11:01.315011 20528 net.cpp:100] Creating Layer prelu3
I0816 10:11:01.315016 20528 net.cpp:434] prelu3 <- conv3
I0816 10:11:01.315023 20528 net.cpp:395] prelu3 -> conv3 (in-place)
I0816 10:11:01.315129 20528 net.cpp:150] Setting up prelu3
I0816 10:11:01.315137 20528 net.cpp:157] Top shape: 1 64 3 3 (576)
I0816 10:11:01.315142 20528 net.cpp:165] Memory required for data: 167664
I0816 10:11:01.315152 20528 layer_factory.hpp:77] Creating layer conv4
I0816 10:11:01.315161 20528 net.cpp:100] Creating Layer conv4
I0816 10:11:01.315167 20528 net.cpp:434] conv4 <- conv3
I0816 10:11:01.315174 20528 net.cpp:408] conv4 -> conv4
I0816 10:11:01.316540 20528 net.cpp:150] Setting up conv4
I0816 10:11:01.316557 20528 net.cpp:157] Top shape: 1 128 (128)
I0816 10:11:01.316562 20528 net.cpp:165] Memory required for data: 168176
I0816 10:11:01.316572 20528 layer_factory.hpp:77] Creating layer prelu4
I0816 10:11:01.316581 20528 net.cpp:100] Creating Layer prelu4
I0816 10:11:01.316586 20528 net.cpp:434] prelu4 <- conv4
I0816 10:11:01.316593 20528 net.cpp:395] prelu4 -> conv4 (in-place)
I0816 10:11:01.316684 20528 net.cpp:150] Setting up prelu4
I0816 10:11:01.316691 20528 net.cpp:157] Top shape: 1 128 (128)
I0816 10:11:01.316697 20528 net.cpp:165] Memory required for data: 168688
I0816 10:11:01.316704 20528 layer_factory.hpp:77] Creating layer conv4_prelu4_0_split
I0816 10:11:01.316711 20528 net.cpp:100] Creating Layer conv4_prelu4_0_split
I0816 10:11:01.316716 20528 net.cpp:434] conv4_prelu4_0_split <- conv4
I0816 10:11:01.316723 20528 net.cpp:408] conv4_prelu4_0_split -> conv4_prelu4_0_split_0
I0816 10:11:01.316738 20528 net.cpp:408] conv4_prelu4_0_split -> conv4_prelu4_0_split_1
I0816 10:11:01.316782 20528 net.cpp:150] Setting up conv4_prelu4_0_split
I0816 10:11:01.316790 20528 net.cpp:157] Top shape: 1 128 (128)
I0816 10:11:01.316797 20528 net.cpp:157] Top shape: 1 128 (128)
I0816 10:11:01.316802 20528 net.cpp:165] Memory required for data: 169712
I0816 10:11:01.316807 20528 layer_factory.hpp:77] Creating layer conv5-1
I0816 10:11:01.316815 20528 net.cpp:100] Creating Layer conv5-1
I0816 10:11:01.316820 20528 net.cpp:434] conv5-1 <- conv4_prelu4_0_split_0
I0816 10:11:01.316828 20528 net.cpp:408] conv5-1 -> conv5-1
I0816 10:11:01.316934 20528 net.cpp:150] Setting up conv5-1
I0816 10:11:01.316943 20528 net.cpp:157] Top shape: 1 2 (2)
I0816 10:11:01.316948 20528 net.cpp:165] Memory required for data: 169720
I0816 10:11:01.316956 20528 layer_factory.hpp:77] Creating layer conv5-2
I0816 10:11:01.316964 20528 net.cpp:100] Creating Layer conv5-2
I0816 10:11:01.316969 20528 net.cpp:434] conv5-2 <- conv4_prelu4_0_split_1
I0816 10:11:01.316977 20528 net.cpp:408] conv5-2 -> conv5-2
I0816 10:11:01.317091 20528 net.cpp:150] Setting up conv5-2
I0816 10:11:01.317101 20528 net.cpp:157] Top shape: 1 4 (4)
I0816 10:11:01.317106 20528 net.cpp:165] Memory required for data: 169736
I0816 10:11:01.317119 20528 layer_factory.hpp:77] Creating layer prob1
I0816 10:11:01.317127 20528 net.cpp:100] Creating Layer prob1
I0816 10:11:01.317133 20528 net.cpp:434] prob1 <- conv5-1
I0816 10:11:01.317139 20528 net.cpp:408] prob1 -> prob1
I0816 10:11:01.317894 20528 net.cpp:150] Setting up prob1
I0816 10:11:01.317912 20528 net.cpp:157] Top shape: 1 2 (2)
I0816 10:11:01.317917 20528 net.cpp:165] Memory required for data: 169744
I0816 10:11:01.317924 20528 net.cpp:228] prob1 does not need backward computation.
I0816 10:11:01.317929 20528 net.cpp:228] conv5-2 does not need backward computation.
I0816 10:11:01.317934 20528 net.cpp:228] conv5-1 does not need backward computation.
I0816 10:11:01.317940 20528 net.cpp:228] conv4_prelu4_0_split does not need backward computation.
…
I0816 10:11:01.319747 20528 upgrade_proto.cpp:67] Attempting to upgrade input file specified using deprecated input fields: model/det3.prototxt
I0816 10:11:01.319762 20528 upgrade_proto.cpp:70] Successfully upgraded file specified using deprecated input fields.
W0816 10:11:01.319767 20528 upgrade_proto.cpp:72] Note that future Caffe releases will only support input layers and not input fields.
I0816 10:11:01.319958 20528 net.cpp:58] Initializing net from parameters: 
name: "ONet"
state {
  phase: TEST
  level: 0
}
layer {
  name: "input"
  type: "Input"
  top: "data"
  input_param {
    shape {
      dim: 1
      dim: 3
      dim: 48
      dim: 48
    }
  }
}
layer {
  name: "conv1"
  type: "Convolution"
  bottom: "data"
  top: "conv1"
  param {
    lr_mult: 1
    decay_mult: 1
  }
  param {
    lr_mult: 2
    decay_mult: 1
  }
  convolution_param {
    num_output: 32
    kernel_size: 3
    stride: 1
    weight_filler {
      type: "xavier"
    }
    bias_filler {
      type: "constant"
      value: 0
    }
  }
}
layer {
  name: "prelu1"
  type: "PReLU"
  bottom: "conv1"
  top: "conv1"
}
layer {
  name: "pool1"
  type: "Pooling"
  bottom: "conv1"
  top: "pool1"
  pooling_param {
    pool: MAX
    kernel_size: 3
    stride: 2
  }
}
layer {
  name: "conv2"
  type: "Convolution"
  bottom: "pool1"
  top: "conv2"
  param {
    lr_mult: 1
    decay_mult: 1
  }
  param {
    lr_mult: 2
    decay_mult: 1
  }
  convolution_param {
    num_output: 64
    kernel_size: 3
    stride: 1
    weight_filler {
      type: "xavier"
    }
    bias_filler {
      type: "constant"
      value: 0
    }
  }
}
layer {
  name: "prelu2"
  type: "PReLU"
  bottom: "conv2"
  top: "conv2"
}
layer {
  name: "pool2"
  type: "Pooling"
  bottom: "conv2"
  top: "pool2"
  pooling_param {
    pool: MAX
    kernel_size: 3
    stride: 2
  }
}
layer {
  name: "conv3"
  type: "Convolution"
  bottom: "pool2"
  top: "conv3"
  param {
    lr_mult: 1
    decay_mult: 1
  }
  param {
    lr_mult: 2
    decay_mult: 1
  }
  convolution_param {
    num_output: 64
    kernel_size: 3
    weight_filler {
      type: "xavier"
    }
    bias_filler {
      type: "constant"
      value: 0
    }
  }
}
layer {
  name: "prelu3"
  type: "PReLU"
  bottom: "conv3"
  top: "conv3"
}
layer {
  name: "pool3"
  type: "Pooling"
  bottom: "conv3"
  top: "pool3"
  pooling_param {
    pool: MAX
    kernel_size: 2
    stride: 2
  }
}
layer {
  name: "conv4"
  type: "Convolution"
  bottom: "pool3"
  top: "conv4"
  param {
    lr_mult: 1
    decay_mult: 1
  }
  param {
    lr_mult: 2
    decay_mult: 1
  }
  convolution_param {
    num_output: 128
    kernel_size: 2
    weight_filler {
      type: "xavier"
    }
    bias_filler {
      type: "constant"
      value: 0
    }
  }
}
layer {
  name: "prelu4"
  type: "PReLU"
  bottom: "conv4"
  top: "conv4"
}
layer {
  name: "conv5"
  type: "InnerProduct"
  bottom: "conv4"
  top: "conv5"
  param {
    lr_mult: 1
    decay_mult: 1
  }
  param {
    lr_mult: 2
    decay_mult: 1
  }
  inner_product_param {
    num_output: 256
    weight_filler {
      type: "xavier"
    }
    bias_filler {
      type: "constant"
      value: 0
    }
  }
}
layer {
  name: "drop5"
  type: "Dropout"
  bottom: "conv5"
  top: "conv5"
  dropout_param {
    dropout_ratio: 0.25
  }
}
layer {
  name: "prelu5"
  type: "PReLU"
  bottom: "conv5"
  top: "conv5"
}
layer {
  name: "conv6-1"
  type: "InnerProduct"
  bottom: "conv5"
  top: "conv6-1"
  param {
    lr_mult: 1
    decay_mult: 1
  }
  param {
    lr_mult: 2
    decay_mult: 1
  }
  inner_product_param {
    num_output: 2
    weight_filler {
      type: "xavier"
    }
    bias_filler {
      type: "constant"
      value: 0
    }
  }
}
layer {
  name: "conv6-2"
  type: "InnerProduct"
  bottom: "conv5"
  top: "conv6-2"
  param {
    lr_mult: 1
    decay_mult: 1
  }
  param {
    lr_mult: 2
    decay_mult: 1
  }
  inner_product_param {
    num_output: 4
    weight_filler {
      type: "xavier"
    }
    bias_filler {
      type: "constant"
      value: 0
    }
  }
}
layer {
  name: "conv6-3"
  type: "InnerProduct"
  bottom: "conv5"
  top: "conv6-3"
  param {
    lr_mult: 1
    decay_mult: 1
  }
  param {
    lr_mult: 2
    decay_mult: 1
  }
  inner_product_param {
    num_output: 10
    weight_filler {
      type: "xavier"
    }
    bias_filler {
      type: "constant"
      value: 0
    }
  }
}
layer {
  name: "prob1"
  type: "Softmax"
  bottom: "conv6-1"
  top: "prob1"
}
I0816 10:11:01.320046 20528 layer_factory.hpp:77] Creating layer input
I0816 10:11:01.320057 20528 net.cpp:100] Creating Layer input
I0816 10:11:01.320065 20528 net.cpp:408] input -> data
I0816 10:11:01.320107 20528 net.cpp:150] Setting up input
I0816 10:11:01.320118 20528 net.cpp:157] Top shape: 1 3 48 48 (6912)
I0816 10:11:01.320123 20528 net.cpp:165] Memory required for data: 27648
I0816 10:11:01.320129 20528 layer_factory.hpp:77] Creating layer conv1
I0816 10:11:01.320140 20528 net.cpp:100] Creating Layer conv1
I0816 10:11:01.320147 20528 net.cpp:434] conv1 <- data
I0816 10:11:01.320153 20528 net.cpp:408] conv1 -> conv1
I0816 10:11:01.322034 20528 net.cpp:150] Setting up conv1
I0816 10:11:01.322054 20528 net.cpp:157] Top shape: 1 32 46 46 (67712)
I0816 10:11:01.322059 20528 net.cpp:165] Memory required for data: 298496
I0816 10:11:01.322074 20528 layer_factory.hpp:77] Creating layer prelu1
I0816 10:11:01.322084 20528 net.cpp:100] Creating Layer prelu1
I0816 10:11:01.322089 20528 net.cpp:434] prelu1 <- conv1
I0816 10:11:01.322096 20528 net.cpp:395] prelu1 -> conv1 (in-place)
I0816 10:11:01.322229 20528 net.cpp:150] Setting up prelu1
I0816 10:11:01.322247 20528 net.cpp:157] Top shape: 1 32 46 46 (67712)
I0816 10:11:01.322252 20528 net.cpp:165] Memory required for data: 569344
I0816 10:11:01.322262 20528 layer_factory.hpp:77] Creating layer pool1
I0816 10:11:01.322270 20528 net.cpp:100] Creating Layer pool1
I0816 10:11:01.322275 20528 net.cpp:434] pool1 <- conv1
I0816 10:11:01.322283 20528 net.cpp:408] pool1 -> pool1
I0816 10:11:01.322325 20528 net.cpp:150] Setting up pool1
I0816 10:11:01.322335 20528 net.cpp:157] Top shape: 1 32 23 23 (16928)
I0816 10:11:01.322340 20528 net.cpp:165] Memory required for data: 637056
I0816 10:11:01.322345 20528 layer_factory.hpp:77] Creating layer conv2
I0816 10:11:01.322355 20528 net.cpp:100] Creating Layer conv2
I0816 10:11:01.322361 20528 net.cpp:434] conv2 <- pool1
I0816 10:11:01.322368 20528 net.cpp:408] conv2 -> conv2
I0816 10:11:01.325803 20528 net.cpp:150] Setting up conv2
I0816 10:11:01.325824 20528 net.cpp:157] Top shape: 1 64 21 21 (28224)
I0816 10:11:01.325829 20528 net.cpp:165] Memory required for data: 749952
I0816 10:11:01.325841 20528 layer_factory.hpp:77] Creating layer prelu2
I0816 10:11:01.325850 20528 net.cpp:100] Creating Layer prelu2
I0816 10:11:01.325856 20528 net.cpp:434] prelu2 <- conv2
I0816 10:11:01.325865 20528 net.cpp:395] prelu2 -> conv2 (in-place)
I0816 10:11:01.325978 20528 net.cpp:150] Setting up prelu2
I0816 10:11:01.325989 20528 net.cpp:157] Top shape: 1 64 21 21 (28224)
I0816 10:11:01.325994 20528 net.cpp:165] Memory required for data: 862848
I0816 10:11:01.326001 20528 layer_factory.hpp:77] Creating layer pool2
I0816 10:11:01.326009 20528 net.cpp:100] Creating Layer pool2
I0816 10:11:01.326014 20528 net.cpp:434] pool2 <- conv2
I0816 10:11:01.326021 20528 net.cpp:408] pool2 -> pool2
I0816 10:11:01.326064 20528 net.cpp:150] Setting up pool2
I0816 10:11:01.326073 20528 net.cpp:157] Top shape: 1 64 10 10 (6400)
I0816 10:11:01.326078 20528 net.cpp:165] Memory required for data: 888448
I0816 10:11:01.326083 20528 layer_factory.hpp:77] Creating layer conv3
I0816 10:11:01.326093 20528 net.cpp:100] Creating Layer conv3
I0816 10:11:01.326099 20528 net.cpp:434] conv3 <- pool2
I0816 10:11:01.326107 20528 net.cpp:408] conv3 -> conv3
I0816 10:11:01.327669 20528 net.cpp:150] Setting up conv3
I0816 10:11:01.327687 20528 net.cpp:157] Top shape: 1 64 8 8 (4096)
I0816 10:11:01.327692 20528 net.cpp:165] Memory required for data: 904832
I0816 10:11:01.327702 20528 layer_factory.hpp:77] Creating layer prelu3
I0816 10:11:01.327713 20528 net.cpp:100] Creating Layer prelu3
I0816 10:11:01.327718 20528 net.cpp:434] prelu3 <- conv3
I0816 10:11:01.327725 20528 net.cpp:395] prelu3 -> conv3 (in-place)
I0816 10:11:01.327847 20528 net.cpp:150] Setting up prelu3
I0816 10:11:01.327857 20528 net.cpp:157] Top shape: 1 64 8 8 (4096)
I0816 10:11:01.327862 20528 net.cpp:165] Memory required for data: 921216
I0816 10:11:01.327872 20528 layer_factory.hpp:77] Creating layer pool3
I0816 10:11:01.327881 20528 net.cpp:100] Creating Layer pool3
I0816 10:11:01.327886 20528 net.cpp:434] pool3 <- conv3
I0816 10:11:01.327893 20528 net.cpp:408] pool3 -> pool3
I0816 10:11:01.327936 20528 net.cpp:150] Setting up pool3
I0816 10:11:01.327945 20528 net.cpp:157] Top shape: 1 64 4 4 (1024)
I0816 10:11:01.327950 20528 net.cpp:165] Memory required for data: 925312
I0816 10:11:01.327955 20528 layer_factory.hpp:77] Creating layer conv4
I0816 10:11:01.327965 20528 net.cpp:100] Creating Layer conv4
I0816 10:11:01.327970 20528 net.cpp:434] conv4 <- pool3
I0816 10:11:01.327977 20528 net.cpp:408] conv4 -> conv4
I0816 10:11:01.330009 20528 net.cpp:150] Setting up conv4
I0816 10:11:01.330027 20528 net.cpp:157] Top shape: 1 128 3 3 (1152)
I0816 10:11:01.330032 20528 net.cpp:165] Memory required for data: 929920
I0816 10:11:01.330042 20528 layer_factory.hpp:77] Creating layer prelu4
I0816 10:11:01.330051 20528 net.cpp:100] Creating Layer prelu4
I0816 10:11:01.330057 20528 net.cpp:434] prelu4 <- conv4
I0816 10:11:01.330065 20528 net.cpp:395] prelu4 -> conv4 (in-place)
I0816 10:11:01.330164 20528 net.cpp:150] Setting up prelu4
I0816 10:11:01.330173 20528 net.cpp:157] Top shape: 1 128 3 3 (1152)
I0816 10:11:01.330184 20528 net.cpp:165] Memory required for data: 934528
I0816 10:11:01.330193 20528 layer_factory.hpp:77] Creating layer conv5
I0816 10:11:01.330201 20528 net.cpp:100] Creating Layer conv5
I0816 10:11:01.330206 20528 net.cpp:434] conv5 <- conv4
I0816 10:11:01.330214 20528 net.cpp:408] conv5 -> conv5
I0816 10:11:01.332918 20528 net.cpp:150] Setting up conv5
I0816 10:11:01.332937 20528 net.cpp:157] Top shape: 1 256 (256)
I0816 10:11:01.332942 20528 net.cpp:165] Memory required for data: 935552
I0816 10:11:01.332952 20528 layer_factory.hpp:77] Creating layer drop5
I0816 10:11:01.332964 20528 net.cpp:100] Creating Layer drop5
I0816 10:11:01.332970 20528 net.cpp:434] drop5 <- conv5
I0816 10:11:01.332978 20528 net.cpp:395] drop5 -> conv5 (in-place)
I0816 10:11:01.333014 20528 net.cpp:150] Setting up drop5
I0816 10:11:01.333022 20528 net.cpp:157] Top shape: 1 256 (256)
I0816 10:11:01.333027 20528 net.cpp:165] Memory required for data: 936576
I0816 10:11:01.333032 20528 layer_factory.hpp:77] Creating layer prelu5
I0816 10:11:01.333039 20528 net.cpp:100] Creating Layer prelu5
I0816 10:11:01.333045 20528 net.cpp:434] prelu5 <- conv5
I0816 10:11:01.333051 20528 net.cpp:395] prelu5 -> conv5 (in-place)
I0816 10:11:01.333139 20528 net.cpp:150] Setting up prelu5
I0816 10:11:01.333148 20528 net.cpp:157] Top shape: 1 256 (256)
I0816 10:11:01.333153 20528 net.cpp:165] Memory required for data: 937600
I0816 10:11:01.333160 20528 layer_factory.hpp:77] Creating layer conv5_prelu5_0_split
I0816 10:11:01.333168 20528 net.cpp:100] Creating Layer conv5_prelu5_0_split
I0816 10:11:01.333173 20528 net.cpp:434] conv5_prelu5_0_split <- conv5
I0816 10:11:01.333179 20528 net.cpp:408] conv5_prelu5_0_split -> conv5_prelu5_0_split_0
I0816 10:11:01.333187 20528 net.cpp:408] conv5_prelu5_0_split -> conv5_prelu5_0_split_1
I0816 10:11:01.333195 20528 net.cpp:408] conv5_prelu5_0_split -> conv5_prelu5_0_split_2
I0816 10:11:01.333248 20528 net.cpp:150] Setting up conv5_prelu5_0_split
I0816 10:11:01.333256 20528 net.cpp:157] Top shape: 1 256 (256)
I0816 10:11:01.333262 20528 net.cpp:157] Top shape: 1 256 (256)
I0816 10:11:01.333267 20528 net.cpp:157] Top shape: 1 256 (256)
I0816 10:11:01.333272 20528 net.cpp:165] Memory required for data: 940672
I0816 10:11:01.333277 20528 layer_factory.hpp:77] Creating layer conv6-1
I0816 10:11:01.333287 20528 net.cpp:100] Creating Layer conv6-1
I0816 10:11:01.333293 20528 net.cpp:434] conv6-1 <- conv5_prelu5_0_split_0
I0816 10:11:01.333302 20528 net.cpp:408] conv6-1 -> conv6-1
I0816 10:11:01.333418 20528 net.cpp:150] Setting up conv6-1
I0816 10:11:01.333427 20528 net.cpp:157] Top shape: 1 2 (2)
I0816 10:11:01.333432 20528 net.cpp:165] Memory required for data: 940680
I0816 10:11:01.333444 20528 layer_factory.hpp:77] Creating layer conv6-2
I0816 10:11:01.333452 20528 net.cpp:100] Creating Layer conv6-2
I0816 10:11:01.333458 20528 net.cpp:434] conv6-2 <- conv5_prelu5_0_split_1
I0816 10:11:01.333465 20528 net.cpp:408] conv6-2 -> conv6-2
I0816 10:11:01.333578 20528 net.cpp:150] Setting up conv6-2
I0816 10:11:01.333586 20528 net.cpp:157] Top shape: 1 4 (4)
I0816 10:11:01.333591 20528 net.cpp:165] Memory required for data: 940696
I0816 10:11:01.333600 20528 layer_factory.hpp:77] Creating layer conv6-3
I0816 10:11:01.333607 20528 net.cpp:100] Creating Layer conv6-3
I0816 10:11:01.333612 20528 net.cpp:434] conv6-3 <- conv5_prelu5_0_split_2
I0816 10:11:01.333619 20528 net.cpp:408] conv6-3 -> conv6-3
I0816 10:11:01.333745 20528 net.cpp:150] Setting up conv6-3
I0816 10:11:01.333755 20528 net.cpp:157] Top shape: 1 10 (10)
I0816 10:11:01.333760 20528 net.cpp:165] Memory required for data: 940736
I0816 10:11:01.333767 20528 layer_factory.hpp:77] Creating layer prob1
I0816 10:11:01.333775 20528 net.cpp:100] Creating Layer prob1
I0816 10:11:01.333781 20528 net.cpp:434] prob1 <- conv6-1
I0816 10:11:01.333787 20528 net.cpp:408] prob1 -> prob1
I0816 10:11:01.336769 20528 net.cpp:150] Setting up prob1
I0816 10:11:01.336786 20528 net.cpp:157] Top shape: 1 2 (2)
I0816 10:11:01.336791 20528 net.cpp:165] Memory required for data: 940744
I0816 10:11:01.336804 20528 net.cpp:228] prob1 does not need backward computation.
I0816 10:11:01.336809 20528 net.cpp:228] conv6-3 does not need backward computation.
I0816 10:11:01.336815 20528 net.cpp:228] conv6-2 does not need backward computation.
I0816 10:11:01.336820 20528 net.cpp:228] conv6-1 does not need backward computation.
…
I0816 10:11:01.343081 20528 upgrade_proto.cpp:67] Attempting to upgrade input file specified using deprecated input fields: model/face_deploy.prototxt
I0816 10:11:01.343102 20528 upgrade_proto.cpp:70] Successfully upgraded file specified using deprecated input fields.
W0816 10:11:01.343108 20528 upgrade_proto.cpp:72] Note that future Caffe releases will only support input layers and not input fields.
I0816 10:11:01.343688 20528 net.cpp:58] Initializing net from parameters: 
state {
  phase: TEST
  level: 0
}
layer {
  name: "input"
  type: "Input"
  top: "data"
  input_param {
    shape {
      dim: 1
      dim: 3
      dim: 112
      dim: 96
    }
  }
}
layer {
  name: "conv1a"
  type: "Convolution"
  bottom: "data"
  top: "conv1a"
  param {
    lr_mult: 1
    decay_mult: 1
  }
  param {
    lr_mult: 2
    decay_mult: 0
  }
  convolution_param {
    num_output: 32
    kernel_size: 3
    stride: 1
    weight_filler {
      type: "xavier"
    }
    bias_filler {
      type: "constant"
      value: 0
    }
  }
}
layer {
  name: "relu1a"
  type: "PReLU"
  bottom: "conv1a"
  top: "conv1a"
}
layer {
  name: "conv1b"
  type: "Convolution"
  bottom: "conv1a"
  top: "conv1b"
  param {
    lr_mult: 1
    decay_mult: 1
  }
  param {
    lr_mult: 2
    decay_mult: 0
  }
  convolution_param {
    num_output: 64
    kernel_size: 3
    stride: 1
    weight_filler {
      type: "xavier"
    }
    bias_filler {
      type: "constant"
      value: 0
    }
  }
}
layer {
  name: "relu1b"
  type: "PReLU"
  bottom: "conv1b"
  top: "conv1b"
}
layer {
  name: "pool1b"
  type: "Pooling"
  bottom: "conv1b"
  top: "pool1b"
  pooling_param {
    pool: MAX
    kernel_size: 2
    stride: 2
  }
}
layer {
  name: "conv2_1"
  type: "Convolution"
  bottom: "pool1b"
  top: "conv2_1"
  param {
    lr_mult: 1
    decay_mult: 1
  }
  param {
    lr_mult: 0
    decay_mult: 0
  }
  convolution_param {
    num_output: 64
    pad: 1
    kernel_size: 3
    stride: 1
    weight_filler {
      type: "gaussian"
      std: 0.01
    }
    bias_filler {
      type: "constant"
      value: 0
    }
  }
}
layer {
  name: "relu2_1"
  type: "PReLU"
  bottom: "conv2_1"
  top: "conv2_1"
}
layer {
  name: "conv2_2"
  type: "Convolution"
  bottom: "conv2_1"
  top: "conv2_2"
  param {
    lr_mult: 1
    decay_mult: 1
  }
  param {
    lr_mult: 0
    decay_mult: 0
  }
  convolution_param {
    num_output: 64
    pad: 1
    kernel_size: 3
    stride: 1
    weight_filler {
      type: "gaussian"
      std: 0.01
    }
    bias_filler {
      type: "constant"
      value: 0
    }
  }
}
layer {
  name: "relu2_2"
  type: "PReLU"
  bottom: "conv2_2"
  top: "conv2_2"
}
layer {
  name: "res2_2"
  type: "Eltwise"
  bottom: "pool1b"
  bottom: "conv2_2"
  top: "res2_2"
  eltwise_param {
    operation: SUM
  }
}
layer {
  name: "conv2"
  type: "Convolution"
  bottom: "res2_2"
  top: "conv2"
  param {
    lr_mult: 1
    decay_mult: 1
  }
  param {
    lr_mult: 2
    decay_mult: 0
  }
  convolution_param {
    num_output: 128
    kernel_size: 3
    stride: 1
    weight_filler {
      type: "xavier"
    }
    bias_filler {
      type: "constant"
      value: 0
    }
  }
}
layer {
  name: "relu2"
  type: "PReLU"
  bottom: "conv2"
  top: "conv2"
}
layer {
  name: "pool2"
  type: "Pooling"
  bottom: "conv2"
  top: "pool2"
  pooling_param {
    pool: MAX
    kernel_size: 2
    stride: 2
  }
}
layer {
  name: "conv3_1"
  type: "Convolution"
  bottom: "pool2"
  top: "conv3_1"
  param {
    lr_mult: 1
    decay_mult: 1
  }
  param {
    lr_mult: 0
    decay_mult: 0
  }
  convolution_param {
    num_output: 128
    pad: 1
    kernel_size: 3
    stride: 1
    weight_filler {
      type: "gaussian"
      std: 0.01
    }
    bias_filler {
      type: "constant"
      value: 0
    }
  }
}
layer {
  name: "relu3_1"
  type: "PReLU"
  bottom: "conv3_1"
  top: "conv3_1"
}
layer {
  name: "conv3_2"
  type: "Convolution"
  bottom: "conv3_1"
  top: "conv3_2"
  param {
    lr_mult: 1
    decay_mult: 1
  }
  param {
    lr_mult: 0
    decay_mult: 0
  }
  convolution_param {
    num_output: 128
    pad: 1
    kernel_size: 3
    stride: 1
    weight_filler {
      type: "gaussian"
      std: 0.01
    }
    bias_filler {
      type: "constant"
      value: 0
    }
  }
}
layer {
  name: "relu3_2"
  type: "PReLU"
  bottom: "conv3_2"
  top: "conv3_2"
}
layer {
  name: "res3_2"
  type: "Eltwise"
  bottom: "pool2"
  bottom: "conv3_2"
  top: "res3_2"
  eltwise_param {
    operation: SUM
  }
}
layer {
  name: "conv3_3"
  type: "Convolution"
  bottom: "res3_2"
  top: "conv3_3"
  param {
    lr_mult: 1
    decay_mult: 1
  }
  param {
    lr_mult: 0
    decay_mult: 0
  }
  convolution_param {
    num_output: 128
    pad: 1
    kernel_size: 3
    stride: 1
    weight_filler {
      type: "gaussian"
      std: 0.01
    }
    bias_filler {
      type: "constant"
      value: 0
    }
  }
}
layer {
  name: "relu3_3"
  type: "PReLU"
  bottom: "conv3_3"
  top: "conv3_3"
}
layer {
  name: "conv3_4"
  type: "Convolution"
  bottom: "conv3_3"
  top: "conv3_4"
  param {
    lr_mult: 1
    decay_mult: 1
  }
  param {
    lr_mult: 0
    decay_mult: 0
  }
  convolution_param {
    num_output: 128
    pad: 1
    kernel_size: 3
    stride: 1
    weight_filler {
      type: "gaussian"
      std: 0.01
    }
    bias_filler {
      type: "constant"
      value: 0
    }
  }
}
layer {
  name: "relu3_4"
  type: "PReLU"
  bottom: "conv3_4"
  top: "conv3_4"
}
layer {
  name: "res3_4"
  type: "Eltwise"
  bottom: "res3_2"
  bottom: "conv3_4"
  top: "res3_4"
  eltwise_param {
    operation: SUM
  }
}
layer {
  name: "conv3"
  type: "Convolution"
  bottom: "res3_4"
  top: "conv3"
  param {
    lr_mult: 1
    decay_mult: 1
  }
  param {
    lr_mult: 2
    decay_mult: 0
  }
  convolution_param {
    num_output: 256
    kernel_size: 3
    stride: 1
    weight_filler {
      type: "xavier"
    }
    bias_filler {
      type: "constant"
      value: 0
    }
  }
}
layer {
  name: "relu3"
  type: "PReLU"
  bottom: "conv3"
  top: "conv3"
}
layer {
  name: "pool3"
  type: "Pooling"
  bottom: "conv3"
  top: "pool3"
  pooling_param {
    pool: MAX
    kernel_size: 2
    stride: 2
  }
}
layer {
  name: "conv4_1"
  type: "Convolution"
  bottom: "pool3"
  top: "conv4_1"
  param {
    lr_mult: 1
    decay_mult: 1
  }
  param {
    lr_mult: 0
    decay_mult: 0
  }
  convolution_param {
    num_output: 256
    pad: 1
    kernel_size: 3
    stride: 1
    weight_filler {
      type: "gaussian"
      std: 0.01
    }
    bias_filler {
      type: "constant"
      value: 0
    }
  }
}
layer {
  name: "relu4_1"
  type: "PReLU"
  bottom: "conv4_1"
  top: "conv4_1"
}
layer {
  name: "conv4_2"
  type: "Convolution"
  bottom: "conv4_1"
  top: "conv4_2"
  param {
    lr_mult: 1
    decay_mult: 1
  }
  param {
    lr_mult: 0
    decay_mult: 0
  }
  convolution_param {
    num_output: 256
    pad: 1
    kernel_size: 3
    stride: 1
    weight_filler {
      type: "gaussian"
      std: 0.01
    }
    bias_filler {
      type: "constant"
      value: 0
    }
  }
}
layer {
  name: "relu4_2"
  type: "PReLU"
  bottom: "conv4_2"
  top: "conv4_2"
}
layer {
  name: "res4_2"
  type: "Eltwise"
  bottom: "pool3"
  bottom: "conv4_2"
  top: "res4_2"
  eltwise_param {
    operation: SUM
  }
}
layer {
  name: "conv4_3"
  type: "Convolution"
  bottom: "res4_2"
  top: "conv4_3"
  param {
    lr_mult: 1
    decay_mult: 1
  }
  param {
    lr_mult: 0
    decay_mult: 0
  }
  convolution_param {
    num_output: 256
    pad: 1
    kernel_size: 3
    stride: 1
    weight_filler {
      type: "gaussian"
      std: 0.01
    }
    bias_filler {
      type: "constant"
      value: 0
    }
  }
}
layer {
  name: "relu4_3"
  type: "PReLU"
  bottom: "conv4_3"
  top: "conv4_3"
}
layer {
  name: "conv4_4"
  type: "Convolution"
  bottom: "conv4_3"
  top: "conv4_4"
  param {
    lr_mult: 1
    decay_mult: 1
  }
  param {
    lr_mult: 0
    decay_mult: 0
  }
  convolution_param {
    num_output: 256
    pad: 1
    kernel_size: 3
    stride: 1
    weight_filler {
      type: "gaussian"
      std: 0.01
    }
    bias_filler {
      type: "constant"
      value: 0
    }
  }
}
layer {
  name: "relu4_4"
  type: "PReLU"
  bottom: "conv4_4"
  top: "conv4_4"
}
layer {
  name: "res4_4"
  type: "Eltwise"
  bottom: "res4_2"
  bottom: "conv4_4"
  top: "res4_4"
  eltwise_param {
    operation: SUM
  }
}
layer {
  name: "conv4_5"
  type: "Convolution"
  bottom: "res4_4"
  top: "conv4_5"
  param {
    lr_mult: 1
    decay_mult: 1
  }
  param {
    lr_mult: 0
    decay_mult: 0
  }
  convolution_param {
    num_output: 256
    pad: 1
    kernel_size: 3
    stride: 1
    weight_filler {
      type: "gaussian"
      std: 0.01
    }
    bias_filler {
      type: "constant"
      value: 0
    }
  }
}
layer {
  name: "relu4_5"
  type: "PReLU"
  bottom: "conv4_5"
  top: "conv4_5"
}
layer {
  name: "conv4_6"
  type: "Convolution"
  bottom: "conv4_5"
  top: "conv4_6"
  param {
    lr_mult: 1
    decay_mult: 1
  }
  param {
    lr_mult: 0
    decay_mult: 0
  }
  convolution_param {
    num_output: 256
    pad: 1
    kernel_size: 3
    stride: 1
    weight_filler {
      type: "gaussian"
      std: 0.01
    }
    bias_filler {
      type: "constant"
      value: 0
    }
  }
}
layer {
  name: "relu4_6"
  type: "PReLU"
  bottom: "conv4_6"
  top: "conv4_6"
}
layer {
  name: "res4_6"
  type: "Eltwise"
  bottom: "res4_4"
  bottom: "conv4_6"
  top: "res4_6"
  eltwise_param {
    operation: SUM
  }
}
layer {
  name: "conv4_7"
  type: "Convolution"
  bottom: "res4_6"
  top: "conv4_7"
  param {
    lr_mult: 1
    decay_mult: 1
  }
  param {
    lr_mult: 0
    decay_mult: 0
  }
  convolution_param {
    num_output: 256
    pad: 1
    kernel_size: 3
    stride: 1
    weight_filler {
      type: "gaussian"
      std: 0.01
    }
    bias_filler {
      type: "constant"
      value: 0
    }
  }
}
layer {
  name: "relu4_7"
  type: "PReLU"
  bottom: "conv4_7"
  top: "conv4_7"
}
layer {
  name: "conv4_8"
  type: "Convolution"
  bottom: "conv4_7"
  top: "conv4_8"
  param {
    lr_mult: 1
    decay_mult: 1
  }
  param {
    lr_mult: 0
    decay_mult: 0
  }
  convolution_param {
    num_output: 256
    pad: 1
    kernel_size: 3
    stride: 1
    weight_filler {
      type: "gaussian"
      std: 0.01
    }
    bias_filler {
      type: "constant"
      value: 0
    }
  }
}
layer {
  name: "relu4_8"
  type: "PReLU"
  bottom: "conv4_8"
  top: "conv4_8"
}
layer {
  name: "res4_8"
  type: "Eltwise"
  bottom: "res4_6"
  bottom: "conv4_8"
  top: "res4_8"
  eltwise_param {
    operation: SUM
  }
}
layer {
  name: "conv4_9"
  type: "Convolution"
  bottom: "res4_8"
  top: "conv4_9"
  param {
    lr_mult: 1
    decay_mult: 1
  }
  param {
    lr_mult: 0
    decay_mult: 0
  }
  convolution_param {
    num_output: 256
    pad: 1
    kernel_size: 3
    stride: 1
    weight_filler {
      type: "gaussian"
      std: 0.01
    }
    bias_filler {
      type: "constant"
      value: 0
    }
  }
}
layer {
  name: "relu4_9"
  type: "PReLU"
  bottom: "conv4_9"
  top: "conv4_9"
}
layer {
  name: "conv4_10"
  type: "Convolution"
  bottom: "conv4_9"
  top: "conv4_10"
  param {
    lr_mult: 1
    decay_mult: 1
  }
  param {
    lr_mult: 0
    decay_mult: 0
  }
  convolution_param {
    num_output: 256
    pad: 1
    kernel_size: 3
    stride: 1
    weight_filler {
      type: "gaussian"
      std: 0.01
    }
    bias_filler {
      type: "constant"
      value: 0
    }
  }
}
layer {
  name: "relu4_10"
  type: "PReLU"
  bottom: "conv4_10"
  top: "conv4_10"
}
layer {
  name: "res4_10"
  type: "Eltwise"
  bottom: "res4_8"
  bottom: "conv4_10"
  top: "res4_10"
  eltwise_param {
    operation: SUM
  }
}
layer {
  name: "conv4"
  type: "Convolution"
  bottom: "res4_10"
  top: "conv4"
  param {
    lr_mult: 1
    decay_mult: 1
  }
  param {
    lr_mult: 2
    decay_mult: 0
  }
  convolution_param {
    num_output: 512
    kernel_size: 3
    stride: 1
    weight_filler {
      type: "xavier"
    }
    bias_filler {
      type: "constant"
      value: 0
    }
  }
}
layer {
  name: "relu4"
  type: "PReLU"
  bottom: "conv4"
  top: "conv4"
}
layer {
  name: "pool4"
  type: "Pooling"
  bottom: "conv4"
  top: "pool4"
  pooling_param {
    pool: MAX
    kernel_size: 2
    stride: 2
  }
}
layer {
  name: "conv5_1"
  type: "Convolution"
  bottom: "pool4"
  top: "conv5_1"
  param {
    lr_mult: 1
    decay_mult: 1
  }
  param {
    lr_mult: 0
    decay_mult: 0
  }
  convolution_param {
    num_output: 512
    pad: 1
    kernel_size: 3
    stride: 1
    weight_filler {
      type: "gaussian"
      std: 0.01
    }
    bias_filler {
      type: "constant"
      value: 0
    }
  }
}
layer {
  name: "relu5_1"
  type: "PReLU"
  bottom: "conv5_1"
  top: "conv5_1"
}
layer {
  name: "conv5_2"
  type: "Convolution"
  bottom: "conv5_1"
  top: "conv5_2"
  param {
    lr_mult: 1
    decay_mult: 1
  }
  param {
    lr_mult: 0
    decay_mult: 0
  }
  convolution_param {
    num_output: 512
    pad: 1
    kernel_size: 3
    stride: 1
    weight_filler {
      type: "gaussian"
      std: 0.01
    }
    bias_filler {
      type: "constant"
      value: 0
    }
  }
}
layer {
  name: "relu5_2"
  type: "PReLU"
  bottom: "conv5_2"
  top: "conv5_2"
}
layer {
  name: "res5_2"
  type: "Eltwise"
  bottom: "pool4"
  bottom: "conv5_2"
  top: "res5_2"
  eltwise_param {
    operation: SUM
  }
}
layer {
  name: "conv5_3"
  type: "Convolution"
  bottom: "res5_2"
  top: "conv5_3"
  param {
    lr_mult: 1
    decay_mult: 1
  }
  param {
    lr_mult: 0
    decay_mult: 0
  }
  convolution_param {
    num_output: 512
    pad: 1
    kernel_size: 3
    stride: 1
    weight_filler {
      type: "gaussian"
      std: 0.01
    }
    bias_filler {
      type: "constant"
      value: 0
    }
  }
}
layer {
  name: "relu5_3"
  type: "PReLU"
  bottom: "conv5_3"
  top: "conv5_3"
}
layer {
  name: "conv5_4"
  type: "Convolution"
  bottom: "conv5_3"
  top: "conv5_4"
  param {
    lr_mult: 1
    decay_mult: 1
  }
  param {
    lr_mult: 0
    decay_mult: 0
  }
  convolution_param {
    num_output: 512
    pad: 1
    kernel_size: 3
    stride: 1
    weight_filler {
      type: "gaussian"
      std: 0.01
    }
    bias_filler {
      type: "constant"
      value: 0
    }
  }
}
layer {
  name: "relu5_4"
  type: "PReLU"
  bottom: "conv5_4"
  top: "conv5_4"
}
layer {
  name: "res5_4"
  type: "Eltwise"
  bottom: "res5_2"
  bottom: "conv5_4"
  top: "res5_4"
  eltwise_param {
    operation: SUM
  }
}
layer {
  name: "conv5_5"
  type: "Convolution"
  bottom: "res5_4"
  top: "conv5_5"
  param {
    lr_mult: 1
    decay_mult: 1
  }
  param {
    lr_mult: 0
    decay_mult: 0
  }
  convolution_param {
    num_output: 512
    pad: 1
    kernel_size: 3
    stride: 1
    weight_filler {
      type: "gaussian"
      std: 0.01
    }
    bias_filler {
      type: "constant"
      value: 0
    }
  }
}
layer {
  name: "relu5_5"
  type: "PReLU"
  bottom: "conv5_5"
  top: "conv5_5"
}
layer {
  name: "conv5_6"
  type: "Convolution"
  bottom: "conv5_5"
  top: "conv5_6"
  param {
    lr_mult: 1
    decay_mult: 1
  }
  param {
    lr_mult: 0
    decay_mult: 0
  }
  convolution_param {
    num_output: 512
    pad: 1
    kernel_size: 3
    stride: 1
    weight_filler {
      type: "gaussian"
      std: 0.01
    }
    bias_filler {
      type: "constant"
      value: 0
    }
  }
}
layer {
  name: "relu5_6"
  type: "PReLU"
  bottom: "conv5_6"
  top: "conv5_6"
}
layer {
  name: "res5_6"
  type: "Eltwise"
  bottom: "res5_4"
  bottom: "conv5_6"
  top: "res5_6"
  eltwise_param {
    operation: SUM
  }
}
layer {
  name: "fc5"
  type: "InnerProduct"
  bottom: "res5_6"
  top: "fc5"
  param {
    lr_mult: 1
    decay_mult: 1
  }
  param {
    lr_mult: 2
    decay_mult: 0
  }
  inner_product_param {
    num_output: 512
    weight_filler {
      type: "xavier"
    }
    bias_filler {
      type: "constant"
      value: 0
    }
  }
}
I0816 10:11:01.344055 20528 layer_factory.hpp:77] Creating layer input
I0816 10:11:01.344069 20528 net.cpp:100] Creating Layer input
I0816 10:11:01.344076 20528 net.cpp:408] input -> data
I0816 10:11:01.344125 20528 net.cpp:150] Setting up input
I0816 10:11:01.344136 20528 net.cpp:157] Top shape: 1 3 112 96 (32256)
I0816 10:11:01.344141 20528 net.cpp:165] Memory required for data: 129024
I0816 10:11:01.344147 20528 layer_factory.hpp:77] Creating layer conv1a
I0816 10:11:01.344158 20528 net.cpp:100] Creating Layer conv1a
I0816 10:11:01.344164 20528 net.cpp:434] conv1a <- data
I0816 10:11:01.344172 20528 net.cpp:408] conv1a -> conv1a
I0816 10:11:01.345870 20528 net.cpp:150] Setting up conv1a
I0816 10:11:01.345890 20528 net.cpp:157] Top shape: 1 32 110 94 (330880)
I0816 10:11:01.345894 20528 net.cpp:165] Memory required for data: 1452544
I0816 10:11:01.345911 20528 layer_factory.hpp:77] Creating layer relu1a
I0816 10:11:01.345921 20528 net.cpp:100] Creating Layer relu1a
I0816 10:11:01.345927 20528 net.cpp:434] relu1a <- conv1a
I0816 10:11:01.345934 20528 net.cpp:395] relu1a -> conv1a (in-place)
I0816 10:11:01.346866 20528 net.cpp:150] Setting up relu1a
I0816 10:11:01.346884 20528 net.cpp:157] Top shape: 1 32 110 94 (330880)
I0816 10:11:01.346889 20528 net.cpp:165] Memory required for data: 2776064
I0816 10:11:01.346899 20528 layer_factory.hpp:77] Creating layer conv1b
I0816 10:11:01.346911 20528 net.cpp:100] Creating Layer conv1b
I0816 10:11:01.346917 20528 net.cpp:434] conv1b <- conv1a
I0816 10:11:01.346925 20528 net.cpp:408] conv1b -> conv1b
I0816 10:11:01.348693 20528 net.cpp:150] Setting up conv1b
I0816 10:11:01.348714 20528 net.cpp:157] Top shape: 1 64 108 92 (635904)
I0816 10:11:01.348721 20528 net.cpp:165] Memory required for data: 5319680
I0816 10:11:01.348740 20528 layer_factory.hpp:77] Creating layer relu1b
I0816 10:11:01.348752 20528 net.cpp:100] Creating Layer relu1b
I0816 10:11:01.348757 20528 net.cpp:434] relu1b <- conv1b
I0816 10:11:01.348774 20528 net.cpp:395] relu1b -> conv1b (in-place)
I0816 10:11:01.350404 20528 net.cpp:150] Setting up relu1b
I0816 10:11:01.350420 20528 net.cpp:157] Top shape: 1 64 108 92 (635904)
I0816 10:11:01.350425 20528 net.cpp:165] Memory required for data: 7863296
I0816 10:11:01.350433 20528 layer_factory.hpp:77] Creating layer pool1b
I0816 10:11:01.350442 20528 net.cpp:100] Creating Layer pool1b
I0816 10:11:01.350448 20528 net.cpp:434] pool1b <- conv1b
I0816 10:11:01.350457 20528 net.cpp:408] pool1b -> pool1b
I0816 10:11:01.350507 20528 net.cpp:150] Setting up pool1b
I0816 10:11:01.350517 20528 net.cpp:157] Top shape: 1 64 54 46 (158976)
I0816 10:11:01.350522 20528 net.cpp:165] Memory required for data: 8499200
I0816 10:11:01.350527 20528 layer_factory.hpp:77] Creating layer pool1b_pool1b_0_split
I0816 10:11:01.350536 20528 net.cpp:100] Creating Layer pool1b_pool1b_0_split
I0816 10:11:01.350541 20528 net.cpp:434] pool1b_pool1b_0_split <- pool1b
I0816 10:11:01.350548 20528 net.cpp:408] pool1b_pool1b_0_split -> pool1b_pool1b_0_split_0
I0816 10:11:01.350558 20528 net.cpp:408] pool1b_pool1b_0_split -> pool1b_pool1b_0_split_1
I0816 10:11:01.350601 20528 net.cpp:150] Setting up pool1b_pool1b_0_split
I0816 10:11:01.350610 20528 net.cpp:157] Top shape: 1 64 54 46 (158976)
I0816 10:11:01.350616 20528 net.cpp:157] Top shape: 1 64 54 46 (158976)
I0816 10:11:01.350621 20528 net.cpp:165] Memory required for data: 9771008
I0816 10:11:01.350626 20528 layer_factory.hpp:77] Creating layer conv2_1
I0816 10:11:01.350636 20528 net.cpp:100] Creating Layer conv2_1
I0816 10:11:01.350642 20528 net.cpp:434] conv2_1 <- pool1b_pool1b_0_split_0
I0816 10:11:01.350652 20528 net.cpp:408] conv2_1 -> conv2_1
I0816 10:11:01.354094 20528 net.cpp:150] Setting up conv2_1
I0816 10:11:01.354111 20528 net.cpp:157] Top shape: 1 64 54 46 (158976)
I0816 10:11:01.354117 20528 net.cpp:165] Memory required for data: 10406912
I0816 10:11:01.354127 20528 layer_factory.hpp:77] Creating layer relu2_1
I0816 10:11:01.354137 20528 net.cpp:100] Creating Layer relu2_1
I0816 10:11:01.354145 20528 net.cpp:434] relu2_1 <- conv2_1
I0816 10:11:01.354151 20528 net.cpp:395] relu2_1 -> conv2_1 (in-place)
I0816 10:11:01.355051 20528 net.cpp:150] Setting up relu2_1
I0816 10:11:01.355067 20528 net.cpp:157] Top shape: 1 64 54 46 (158976)
I0816 10:11:01.355072 20528 net.cpp:165] Memory required for data: 11042816
I0816 10:11:01.355084 20528 layer_factory.hpp:77] Creating layer conv2_2
I0816 10:11:01.355096 20528 net.cpp:100] Creating Layer conv2_2
I0816 10:11:01.355101 20528 net.cpp:434] conv2_2 <- conv2_1
I0816 10:11:01.355110 20528 net.cpp:408] conv2_2 -> conv2_2
I0816 10:11:01.358505 20528 net.cpp:150] Setting up conv2_2
I0816 10:11:01.358523 20528 net.cpp:157] Top shape: 1 64 54 46 (158976)
I0816 10:11:01.358530 20528 net.cpp:165] Memory required for data: 11678720
I0816 10:11:01.358539 20528 layer_factory.hpp:77] Creating layer relu2_2
I0816 10:11:01.358548 20528 net.cpp:100] Creating Layer relu2_2
I0816 10:11:01.358554 20528 net.cpp:434] relu2_2 <- conv2_2
I0816 10:11:01.358561 20528 net.cpp:395] relu2_2 -> conv2_2 (in-place)
I0816 10:11:01.359480 20528 net.cpp:150] Setting up relu2_2
I0816 10:11:01.359498 20528 net.cpp:157] Top shape: 1 64 54 46 (158976)
I0816 10:11:01.359503 20528 net.cpp:165] Memory required for data: 12314624
I0816 10:11:01.359510 20528 layer_factory.hpp:77] Creating layer res2_2
I0816 10:11:01.359522 20528 net.cpp:100] Creating Layer res2_2
I0816 10:11:01.359529 20528 net.cpp:434] res2_2 <- pool1b_pool1b_0_split_1
I0816 10:11:01.359535 20528 net.cpp:434] res2_2 <- conv2_2
I0816 10:11:01.359544 20528 net.cpp:408] res2_2 -> res2_2
I0816 10:11:01.359594 20528 net.cpp:150] Setting up res2_2
I0816 10:11:01.359604 20528 net.cpp:157] Top shape: 1 64 54 46 (158976)
I0816 10:11:01.359609 20528 net.cpp:165] Memory required for data: 12950528
I0816 10:11:01.359614 20528 layer_factory.hpp:77] Creating layer conv2
I0816 10:11:01.359625 20528 net.cpp:100] Creating Layer conv2
I0816 10:11:01.359632 20528 net.cpp:434] conv2 <- res2_2
I0816 10:11:01.359639 20528 net.cpp:408] conv2 -> conv2
I0816 10:11:01.361759 20528 net.cpp:150] Setting up conv2
I0816 10:11:01.361778 20528 net.cpp:157] Top shape: 1 128 52 44 (292864)
I0816 10:11:01.361783 20528 net.cpp:165] Memory required for data: 14121984
I0816 10:11:01.361793 20528 layer_factory.hpp:77] Creating layer relu2
I0816 10:11:01.361802 20528 net.cpp:100] Creating Layer relu2
I0816 10:11:01.361807 20528 net.cpp:434] relu2 <- conv2
I0816 10:11:01.361814 20528 net.cpp:395] relu2 -> conv2 (in-place)
I0816 10:11:01.362838 20528 net.cpp:150] Setting up relu2
I0816 10:11:01.362854 20528 net.cpp:157] Top shape: 1 128 52 44 (292864)
I0816 10:11:01.362859 20528 net.cpp:165] Memory required for data: 15293440
I0816 10:11:01.362867 20528 layer_factory.hpp:77] Creating layer pool2
I0816 10:11:01.362877 20528 net.cpp:100] Creating Layer pool2
I0816 10:11:01.362882 20528 net.cpp:434] pool2 <- conv2
I0816 10:11:01.362890 20528 net.cpp:408] pool2 -> pool2
I0816 10:11:01.362939 20528 net.cpp:150] Setting up pool2
I0816 10:11:01.362948 20528 net.cpp:157] Top shape: 1 128 26 22 (73216)
I0816 10:11:01.362953 20528 net.cpp:165] Memory required for data: 15586304
I0816 10:11:01.362958 20528 layer_factory.hpp:77] Creating layer pool2_pool2_0_split
I0816 10:11:01.362965 20528 net.cpp:100] Creating Layer pool2_pool2_0_split
I0816 10:11:01.362972 20528 net.cpp:434] pool2_pool2_0_split <- pool2
I0816 10:11:01.362977 20528 net.cpp:408] pool2_pool2_0_split -> pool2_pool2_0_split_0
I0816 10:11:01.362985 20528 net.cpp:408] pool2_pool2_0_split -> pool2_pool2_0_split_1
I0816 10:11:01.363025 20528 net.cpp:150] Setting up pool2_pool2_0_split
I0816 10:11:01.363034 20528 net.cpp:157] Top shape: 1 128 26 22 (73216)
I0816 10:11:01.363039 20528 net.cpp:157] Top shape: 1 128 26 22 (73216)
I0816 10:11:01.363044 20528 net.cpp:165] Memory required for data: 16172032
I0816 10:11:01.363049 20528 layer_factory.hpp:77] Creating layer conv3_1
I0816 10:11:01.363061 20528 net.cpp:100] Creating Layer conv3_1
I0816 10:11:01.363067 20528 net.cpp:434] conv3_1 <- pool2_pool2_0_split_0
I0816 10:11:01.363075 20528 net.cpp:408] conv3_1 -> conv3_1
I0816 10:11:01.370679 20528 net.cpp:150] Setting up conv3_1
I0816 10:11:01.370699 20528 net.cpp:157] Top shape: 1 128 26 22 (73216)
I0816 10:11:01.370705 20528 net.cpp:165] Memory required for data: 16464896
I0816 10:11:01.370720 20528 layer_factory.hpp:77] Creating layer relu3_1
I0816 10:11:01.370735 20528 net.cpp:100] Creating Layer relu3_1
I0816 10:11:01.370743 20528 net.cpp:434] relu3_1 <- conv3_1
I0816 10:11:01.370750 20528 net.cpp:395] relu3_1 -> conv3_1 (in-place)
I0816 10:11:01.370896 20528 net.cpp:150] Setting up relu3_1
I0816 10:11:01.370906 20528 net.cpp:157] Top shape: 1 128 26 22 (73216)
I0816 10:11:01.370911 20528 net.cpp:165] Memory required for data: 16757760
I0816 10:11:01.370919 20528 layer_factory.hpp:77] Creating layer conv3_2
I0816 10:11:01.370930 20528 net.cpp:100] Creating Layer conv3_2
I0816 10:11:01.370936 20528 net.cpp:434] conv3_2 <- conv3_1
I0816 10:11:01.370945 20528 net.cpp:408] conv3_2 -> conv3_2
I0816 10:11:01.378908 20528 net.cpp:150] Setting up conv3_2
I0816 10:11:01.378929 20528 net.cpp:157] Top shape: 1 128 26 22 (73216)
I0816 10:11:01.378935 20528 net.cpp:165] Memory required for data: 17050624
I0816 10:11:01.378947 20528 layer_factory.hpp:77] Creating layer relu3_2
I0816 10:11:01.378957 20528 net.cpp:100] Creating Layer relu3_2
I0816 10:11:01.378962 20528 net.cpp:434] relu3_2 <- conv3_2
I0816 10:11:01.378970 20528 net.cpp:395] relu3_2 -> conv3_2 (in-place)
I0816 10:11:01.379118 20528 net.cpp:150] Setting up relu3_2
I0816 10:11:01.379129 20528 net.cpp:157] Top shape: 1 128 26 22 (73216)
I0816 10:11:01.379134 20528 net.cpp:165] Memory required for data: 17343488
I0816 10:11:01.379142 20528 layer_factory.hpp:77] Creating layer res3_2
I0816 10:11:01.379150 20528 net.cpp:100] Creating Layer res3_2
I0816 10:11:01.379156 20528 net.cpp:434] res3_2 <- pool2_pool2_0_split_1
I0816 10:11:01.379163 20528 net.cpp:434] res3_2 <- conv3_2
I0816 10:11:01.379170 20528 net.cpp:408] res3_2 -> res3_2
I0816 10:11:01.379204 20528 net.cpp:150] Setting up res3_2
I0816 10:11:01.379220 20528 net.cpp:157] Top shape: 1 128 26 22 (73216)
I0816 10:11:01.379225 20528 net.cpp:165] Memory required for data: 17636352
I0816 10:11:01.379230 20528 layer_factory.hpp:77] Creating layer res3_2_res3_2_0_split
I0816 10:11:01.379238 20528 net.cpp:100] Creating Layer res3_2_res3_2_0_split
I0816 10:11:01.379243 20528 net.cpp:434] res3_2_res3_2_0_split <- res3_2
I0816 10:11:01.379251 20528 net.cpp:408] res3_2_res3_2_0_split -> res3_2_res3_2_0_split_0
I0816 10:11:01.379262 20528 net.cpp:408] res3_2_res3_2_0_split -> res3_2_res3_2_0_split_1
I0816 10:11:01.379305 20528 net.cpp:150] Setting up res3_2_res3_2_0_split
I0816 10:11:01.379315 20528 net.cpp:157] Top shape: 1 128 26 22 (73216)
I0816 10:11:01.379321 20528 net.cpp:157] Top shape: 1 128 26 22 (73216)
I0816 10:11:01.379326 20528 net.cpp:165] Memory required for data: 18222080
I0816 10:11:01.379331 20528 layer_factory.hpp:77] Creating layer conv3_3
I0816 10:11:01.379343 20528 net.cpp:100] Creating Layer conv3_3
I0816 10:11:01.379349 20528 net.cpp:434] conv3_3 <- res3_2_res3_2_0_split_0
I0816 10:11:01.379359 20528 net.cpp:408] conv3_3 -> conv3_3
I0816 10:11:01.387646 20528 net.cpp:150] Setting up conv3_3
I0816 10:11:01.387666 20528 net.cpp:157] Top shape: 1 128 26 22 (73216)
I0816 10:11:01.387672 20528 net.cpp:165] Memory required for data: 18514944
I0816 10:11:01.387682 20528 layer_factory.hpp:77] Creating layer relu3_3
I0816 10:11:01.387692 20528 net.cpp:100] Creating Layer relu3_3
I0816 10:11:01.387698 20528 net.cpp:434] relu3_3 <- conv3_3
I0816 10:11:01.387707 20528 net.cpp:395] relu3_3 -> conv3_3 (in-place)
I0816 10:11:01.387866 20528 net.cpp:150] Setting up relu3_3
I0816 10:11:01.387878 20528 net.cpp:157] Top shape: 1 128 26 22 (73216)
I0816 10:11:01.387883 20528 net.cpp:165] Memory required for data: 18807808
I0816 10:11:01.387890 20528 layer_factory.hpp:77] Creating layer conv3_4
I0816 10:11:01.387903 20528 net.cpp:100] Creating Layer conv3_4
I0816 10:11:01.387909 20528 net.cpp:434] conv3_4 <- conv3_3
I0816 10:11:01.387918 20528 net.cpp:408] conv3_4 -> conv3_4
I0816 10:11:01.396217 20528 net.cpp:150] Setting up conv3_4
I0816 10:11:01.396237 20528 net.cpp:157] Top shape: 1 128 26 22 (73216)
I0816 10:11:01.396244 20528 net.cpp:165] Memory required for data: 19100672
I0816 10:11:01.396253 20528 layer_factory.hpp:77] Creating layer relu3_4
I0816 10:11:01.396263 20528 net.cpp:100] Creating Layer relu3_4
I0816 10:11:01.396270 20528 net.cpp:434] relu3_4 <- conv3_4
I0816 10:11:01.396278 20528 net.cpp:395] relu3_4 -> conv3_4 (in-place)
I0816 10:11:01.396431 20528 net.cpp:150] Setting up relu3_4
I0816 10:11:01.396441 20528 net.cpp:157] Top shape: 1 128 26 22 (73216)
I0816 10:11:01.396447 20528 net.cpp:165] Memory required for data: 19393536
I0816 10:11:01.396455 20528 layer_factory.hpp:77] Creating layer res3_4
I0816 10:11:01.396464 20528 net.cpp:100] Creating Layer res3_4
I0816 10:11:01.396471 20528 net.cpp:434] res3_4 <- res3_2_res3_2_0_split_1
I0816 10:11:01.396477 20528 net.cpp:434] res3_4 <- conv3_4
I0816 10:11:01.396486 20528 net.cpp:408] res3_4 -> res3_4
I0816 10:11:01.396518 20528 net.cpp:150] Setting up res3_4
I0816 10:11:01.396528 20528 net.cpp:157] Top shape: 1 128 26 22 (73216)
I0816 10:11:01.396533 20528 net.cpp:165] Memory required for data: 19686400
I0816 10:11:01.396538 20528 layer_factory.hpp:77] Creating layer conv3
I0816 10:11:01.396550 20528 net.cpp:100] Creating Layer conv3
I0816 10:11:01.396556 20528 net.cpp:434] conv3 <- res3_4
I0816 10:11:01.396565 20528 net.cpp:408] conv3 -> conv3
I0816 10:11:01.407690 20528 net.cpp:150] Setting up conv3
I0816 10:11:01.407709 20528 net.cpp:157] Top shape: 1 256 24 20 (122880)
I0816 10:11:01.407716 20528 net.cpp:165] Memory required for data: 20177920
I0816 10:11:01.407726 20528 layer_factory.hpp:77] Creating layer relu3
I0816 10:11:01.407742 20528 net.cpp:100] Creating Layer relu3
I0816 10:11:01.407749 20528 net.cpp:434] relu3 <- conv3
I0816 10:11:01.407757 20528 net.cpp:395] relu3 -> conv3 (in-place)
I0816 10:11:01.408509 20528 net.cpp:150] Setting up relu3
I0816 10:11:01.408524 20528 net.cpp:157] Top shape: 1 256 24 20 (122880)
I0816 10:11:01.408535 20528 net.cpp:165] Memory required for data: 20669440
I0816 10:11:01.408543 20528 layer_factory.hpp:77] Creating layer pool3
I0816 10:11:01.408555 20528 net.cpp:100] Creating Layer pool3
I0816 10:11:01.408560 20528 net.cpp:434] pool3 <- conv3
I0816 10:11:01.408568 20528 net.cpp:408] pool3 -> pool3
I0816 10:11:01.408622 20528 net.cpp:150] Setting up pool3
I0816 10:11:01.408630 20528 net.cpp:157] Top shape: 1 256 12 10 (30720)
I0816 10:11:01.408635 20528 net.cpp:165] Memory required for data: 20792320
I0816 10:11:01.408640 20528 layer_factory.hpp:77] Creating layer pool3_pool3_0_split
I0816 10:11:01.408649 20528 net.cpp:100] Creating Layer pool3_pool3_0_split
I0816 10:11:01.408654 20528 net.cpp:434] pool3_pool3_0_split <- pool3
I0816 10:11:01.408663 20528 net.cpp:408] pool3_pool3_0_split -> pool3_pool3_0_split_0
I0816 10:11:01.408670 20528 net.cpp:408] pool3_pool3_0_split -> pool3_pool3_0_split_1
I0816 10:11:01.408715 20528 net.cpp:150] Setting up pool3_pool3_0_split
I0816 10:11:01.408723 20528 net.cpp:157] Top shape: 1 256 12 10 (30720)
I0816 10:11:01.408737 20528 net.cpp:157] Top shape: 1 256 12 10 (30720)
I0816 10:11:01.408743 20528 net.cpp:165] Memory required for data: 21038080
I0816 10:11:01.408749 20528 layer_factory.hpp:77] Creating layer conv4_1
I0816 10:11:01.408761 20528 net.cpp:100] Creating Layer conv4_1
I0816 10:11:01.408766 20528 net.cpp:434] conv4_1 <- pool3_pool3_0_split_0
I0816 10:11:01.408776 20528 net.cpp:408] conv4_1 -> conv4_1
I0816 10:11:01.432696 20528 net.cpp:150] Setting up conv4_1
I0816 10:11:01.432716 20528 net.cpp:157] Top shape: 1 256 12 10 (30720)
I0816 10:11:01.432721 20528 net.cpp:165] Memory required for data: 21160960
I0816 10:11:01.432739 20528 layer_factory.hpp:77] Creating layer relu4_1
I0816 10:11:01.432754 20528 net.cpp:100] Creating Layer relu4_1
I0816 10:11:01.432760 20528 net.cpp:434] relu4_1 <- conv4_1
I0816 10:11:01.432770 20528 net.cpp:395] relu4_1 -> conv4_1 (in-place)
I0816 10:11:01.432915 20528 net.cpp:150] Setting up relu4_1
I0816 10:11:01.432925 20528 net.cpp:157] Top shape: 1 256 12 10 (30720)
I0816 10:11:01.432930 20528 net.cpp:165] Memory required for data: 21283840
I0816 10:11:01.432945 20528 layer_factory.hpp:77] Creating layer conv4_2
I0816 10:11:01.432958 20528 net.cpp:100] Creating Layer conv4_2
I0816 10:11:01.432965 20528 net.cpp:434] conv4_2 <- conv4_1
I0816 10:11:01.432973 20528 net.cpp:408] conv4_2 -> conv4_2
I0816 10:11:01.457151 20528 net.cpp:150] Setting up conv4_2
I0816 10:11:01.457171 20528 net.cpp:157] Top shape: 1 256 12 10 (30720)
I0816 10:11:01.457176 20528 net.cpp:165] Memory required for data: 21406720
I0816 10:11:01.457187 20528 layer_factory.hpp:77] Creating layer relu4_2
I0816 10:11:01.457197 20528 net.cpp:100] Creating Layer relu4_2
I0816 10:11:01.457203 20528 net.cpp:434] relu4_2 <- conv4_2
I0816 10:11:01.457212 20528 net.cpp:395] relu4_2 -> conv4_2 (in-place)
I0816 10:11:01.457938 20528 net.cpp:150] Setting up relu4_2
I0816 10:11:01.457954 20528 net.cpp:157] Top shape: 1 256 12 10 (30720)
I0816 10:11:01.457960 20528 net.cpp:165] Memory required for data: 21529600
I0816 10:11:01.457968 20528 layer_factory.hpp:77] Creating layer res4_2
I0816 10:11:01.457978 20528 net.cpp:100] Creating Layer res4_2
I0816 10:11:01.457984 20528 net.cpp:434] res4_2 <- pool3_pool3_0_split_1
I0816 10:11:01.457991 20528 net.cpp:434] res4_2 <- conv4_2
I0816 10:11:01.457999 20528 net.cpp:408] res4_2 -> res4_2
I0816 10:11:01.458036 20528 net.cpp:150] Setting up res4_2
I0816 10:11:01.458045 20528 net.cpp:157] Top shape: 1 256 12 10 (30720)
I0816 10:11:01.458050 20528 net.cpp:165] Memory required for data: 21652480
I0816 10:11:01.458055 20528 layer_factory.hpp:77] Creating layer res4_2_res4_2_0_split
I0816 10:11:01.458062 20528 net.cpp:100] Creating Layer res4_2_res4_2_0_split
I0816 10:11:01.458068 20528 net.cpp:434] res4_2_res4_2_0_split <- res4_2
I0816 10:11:01.458076 20528 net.cpp:408] res4_2_res4_2_0_split -> res4_2_res4_2_0_split_0
I0816 10:11:01.458084 20528 net.cpp:408] res4_2_res4_2_0_split -> res4_2_res4_2_0_split_1
I0816 10:11:01.458135 20528 net.cpp:150] Setting up res4_2_res4_2_0_split
I0816 10:11:01.458144 20528 net.cpp:157] Top shape: 1 256 12 10 (30720)
I0816 10:11:01.458151 20528 net.cpp:157] Top shape: 1 256 12 10 (30720)
I0816 10:11:01.458156 20528 net.cpp:165] Memory required for data: 21898240
I0816 10:11:01.458161 20528 layer_factory.hpp:77] Creating layer conv4_3
I0816 10:11:01.458174 20528 net.cpp:100] Creating Layer conv4_3
I0816 10:11:01.458179 20528 net.cpp:434] conv4_3 <- res4_2_res4_2_0_split_0
I0816 10:11:01.458189 20528 net.cpp:408] conv4_3 -> conv4_3
I0816 10:11:01.482480 20528 net.cpp:150] Setting up conv4_3
I0816 10:11:01.482499 20528 net.cpp:157] Top shape: 1 256 12 10 (30720)
I0816 10:11:01.482506 20528 net.cpp:165] Memory required for data: 22021120
I0816 10:11:01.482516 20528 layer_factory.hpp:77] Creating layer relu4_3
I0816 10:11:01.482525 20528 net.cpp:100] Creating Layer relu4_3
I0816 10:11:01.482532 20528 net.cpp:434] relu4_3 <- conv4_3
I0816 10:11:01.482539 20528 net.cpp:395] relu4_3 -> conv4_3 (in-place)
I0816 10:11:01.482673 20528 net.cpp:150] Setting up relu4_3
I0816 10:11:01.482683 20528 net.cpp:157] Top shape: 1 256 12 10 (30720)
I0816 10:11:01.482688 20528 net.cpp:165] Memory required for data: 22144000
I0816 10:11:01.482697 20528 layer_factory.hpp:77] Creating layer conv4_4
I0816 10:11:01.482708 20528 net.cpp:100] Creating Layer conv4_4
I0816 10:11:01.482714 20528 net.cpp:434] conv4_4 <- conv4_3
I0816 10:11:01.482723 20528 net.cpp:408] conv4_4 -> conv4_4
I0816 10:11:01.507175 20528 net.cpp:150] Setting up conv4_4
I0816 10:11:01.507195 20528 net.cpp:157] Top shape: 1 256 12 10 (30720)
I0816 10:11:01.507201 20528 net.cpp:165] Memory required for data: 22266880
I0816 10:11:01.507211 20528 layer_factory.hpp:77] Creating layer relu4_4
I0816 10:11:01.507221 20528 net.cpp:100] Creating Layer relu4_4
I0816 10:11:01.507228 20528 net.cpp:434] relu4_4 <- conv4_4
I0816 10:11:01.507237 20528 net.cpp:395] relu4_4 -> conv4_4 (in-place)
I0816 10:11:01.507372 20528 net.cpp:150] Setting up relu4_4
I0816 10:11:01.507382 20528 net.cpp:157] Top shape: 1 256 12 10 (30720)
I0816 10:11:01.507387 20528 net.cpp:165] Memory required for data: 22389760
I0816 10:11:01.507395 20528 layer_factory.hpp:77] Creating layer res4_4
I0816 10:11:01.507403 20528 net.cpp:100] Creating Layer res4_4
I0816 10:11:01.507410 20528 net.cpp:434] res4_4 <- res4_2_res4_2_0_split_1
I0816 10:11:01.507416 20528 net.cpp:434] res4_4 <- conv4_4
I0816 10:11:01.507424 20528 net.cpp:408] res4_4 -> res4_4
I0816 10:11:01.507463 20528 net.cpp:150] Setting up res4_4
I0816 10:11:01.507473 20528 net.cpp:157] Top shape: 1 256 12 10 (30720)
I0816 10:11:01.507478 20528 net.cpp:165] Memory required for data: 22512640
I0816 10:11:01.507483 20528 layer_factory.hpp:77] Creating layer res4_4_res4_4_0_split
I0816 10:11:01.507491 20528 net.cpp:100] Creating Layer res4_4_res4_4_0_split
I0816 10:11:01.507498 20528 net.cpp:434] res4_4_res4_4_0_split <- res4_4
I0816 10:11:01.507504 20528 net.cpp:408] res4_4_res4_4_0_split -> res4_4_res4_4_0_split_0
I0816 10:11:01.507513 20528 net.cpp:408] res4_4_res4_4_0_split -> res4_4_res4_4_0_split_1
I0816 10:11:01.507557 20528 net.cpp:150] Setting up res4_4_res4_4_0_split
I0816 10:11:01.507566 20528 net.cpp:157] Top shape: 1 256 12 10 (30720)
I0816 10:11:01.507572 20528 net.cpp:157] Top shape: 1 256 12 10 (30720)
I0816 10:11:01.507577 20528 net.cpp:165] Memory required for data: 22758400
I0816 10:11:01.507582 20528 layer_factory.hpp:77] Creating layer conv4_5
I0816 10:11:01.507594 20528 net.cpp:100] Creating Layer conv4_5
I0816 10:11:01.507601 20528 net.cpp:434] conv4_5 <- res4_4_res4_4_0_split_0
I0816 10:11:01.507609 20528 net.cpp:408] conv4_5 -> conv4_5
I0816 10:11:01.532071 20528 net.cpp:150] Setting up conv4_5
I0816 10:11:01.532091 20528 net.cpp:157] Top shape: 1 256 12 10 (30720)
I0816 10:11:01.532097 20528 net.cpp:165] Memory required for data: 22881280
I0816 10:11:01.532107 20528 layer_factory.hpp:77] Creating layer relu4_5
I0816 10:11:01.532117 20528 net.cpp:100] Creating Layer relu4_5
I0816 10:11:01.532130 20528 net.cpp:434] relu4_5 <- conv4_5
I0816 10:11:01.532140 20528 net.cpp:395] relu4_5 -> conv4_5 (in-place)
I0816 10:11:01.532276 20528 net.cpp:150] Setting up relu4_5
I0816 10:11:01.532287 20528 net.cpp:157] Top shape: 1 256 12 10 (30720)
I0816 10:11:01.532292 20528 net.cpp:165] Memory required for data: 23004160
I0816 10:11:01.532299 20528 layer_factory.hpp:77] Creating layer conv4_6
I0816 10:11:01.532310 20528 net.cpp:100] Creating Layer conv4_6
I0816 10:11:01.532316 20528 net.cpp:434] conv4_6 <- conv4_5
I0816 10:11:01.532325 20528 net.cpp:408] conv4_6 -> conv4_6
I0816 10:11:01.556427 20528 net.cpp:150] Setting up conv4_6
I0816 10:11:01.556447 20528 net.cpp:157] Top shape: 1 256 12 10 (30720)
I0816 10:11:01.556452 20528 net.cpp:165] Memory required for data: 23127040
I0816 10:11:01.556463 20528 layer_factory.hpp:77] Creating layer relu4_6
I0816 10:11:01.556473 20528 net.cpp:100] Creating Layer relu4_6
I0816 10:11:01.556479 20528 net.cpp:434] relu4_6 <- conv4_6
I0816 10:11:01.556488 20528 net.cpp:395] relu4_6 -> conv4_6 (in-place)
I0816 10:11:01.556624 20528 net.cpp:150] Setting up relu4_6
I0816 10:11:01.556634 20528 net.cpp:157] Top shape: 1 256 12 10 (30720)
I0816 10:11:01.556639 20528 net.cpp:165] Memory required for data: 23249920
I0816 10:11:01.556646 20528 layer_factory.hpp:77] Creating layer res4_6
I0816 10:11:01.556656 20528 net.cpp:100] Creating Layer res4_6
I0816 10:11:01.556663 20528 net.cpp:434] res4_6 <- res4_4_res4_4_0_split_1
I0816 10:11:01.556669 20528 net.cpp:434] res4_6 <- conv4_6
I0816 10:11:01.556676 20528 net.cpp:408] res4_6 -> res4_6
I0816 10:11:01.556711 20528 net.cpp:150] Setting up res4_6
I0816 10:11:01.556720 20528 net.cpp:157] Top shape: 1 256 12 10 (30720)
I0816 10:11:01.556725 20528 net.cpp:165] Memory required for data: 23372800
I0816 10:11:01.556736 20528 layer_factory.hpp:77] Creating layer res4_6_res4_6_0_split
I0816 10:11:01.556746 20528 net.cpp:100] Creating Layer res4_6_res4_6_0_split
I0816 10:11:01.556751 20528 net.cpp:434] res4_6_res4_6_0_split <- res4_6
I0816 10:11:01.556759 20528 net.cpp:408] res4_6_res4_6_0_split -> res4_6_res4_6_0_split_0
I0816 10:11:01.556768 20528 net.cpp:408] res4_6_res4_6_0_split -> res4_6_res4_6_0_split_1
I0816 10:11:01.556815 20528 net.cpp:150] Setting up res4_6_res4_6_0_split
I0816 10:11:01.556824 20528 net.cpp:157] Top shape: 1 256 12 10 (30720)
I0816 10:11:01.556831 20528 net.cpp:157] Top shape: 1 256 12 10 (30720)
I0816 10:11:01.556836 20528 net.cpp:165] Memory required for data: 23618560
I0816 10:11:01.556841 20528 layer_factory.hpp:77] Creating layer conv4_7
I0816 10:11:01.556854 20528 net.cpp:100] Creating Layer conv4_7
I0816 10:11:01.556859 20528 net.cpp:434] conv4_7 <- res4_6_res4_6_0_split_0
I0816 10:11:01.556869 20528 net.cpp:408] conv4_7 -> conv4_7
I0816 10:11:01.581344 20528 net.cpp:150] Setting up conv4_7
I0816 10:11:01.581363 20528 net.cpp:157] Top shape: 1 256 12 10 (30720)
I0816 10:11:01.581369 20528 net.cpp:165] Memory required for data: 23741440
I0816 10:11:01.581379 20528 layer_factory.hpp:77] Creating layer relu4_7
I0816 10:11:01.581389 20528 net.cpp:100] Creating Layer relu4_7
I0816 10:11:01.581396 20528 net.cpp:434] relu4_7 <- conv4_7
I0816 10:11:01.581405 20528 net.cpp:395] relu4_7 -> conv4_7 (in-place)
I0816 10:11:01.581543 20528 net.cpp:150] Setting up relu4_7
I0816 10:11:01.581553 20528 net.cpp:157] Top shape: 1 256 12 10 (30720)
I0816 10:11:01.581558 20528 net.cpp:165] Memory required for data: 23864320
I0816 10:11:01.581565 20528 layer_factory.hpp:77] Creating layer conv4_8
I0816 10:11:01.581578 20528 net.cpp:100] Creating Layer conv4_8
I0816 10:11:01.581583 20528 net.cpp:434] conv4_8 <- conv4_7
I0816 10:11:01.581593 20528 net.cpp:408] conv4_8 -> conv4_8
I0816 10:11:01.606498 20528 net.cpp:150] Setting up conv4_8
I0816 10:11:01.606518 20528 net.cpp:157] Top shape: 1 256 12 10 (30720)
I0816 10:11:01.606524 20528 net.cpp:165] Memory required for data: 23987200
I0816 10:11:01.606534 20528 layer_factory.hpp:77] Creating layer relu4_8
I0816 10:11:01.606544 20528 net.cpp:100] Creating Layer relu4_8
I0816 10:11:01.606550 20528 net.cpp:434] relu4_8 <- conv4_8
I0816 10:11:01.606565 20528 net.cpp:395] relu4_8 -> conv4_8 (in-place)
I0816 10:11:01.606709 20528 net.cpp:150] Setting up relu4_8
I0816 10:11:01.606719 20528 net.cpp:157] Top shape: 1 256 12 10 (30720)
I0816 10:11:01.606724 20528 net.cpp:165] Memory required for data: 24110080
I0816 10:11:01.606739 20528 layer_factory.hpp:77] Creating layer res4_8
I0816 10:11:01.606750 20528 net.cpp:100] Creating Layer res4_8
I0816 10:11:01.606755 20528 net.cpp:434] res4_8 <- res4_6_res4_6_0_split_1
I0816 10:11:01.606762 20528 net.cpp:434] res4_8 <- conv4_8
I0816 10:11:01.606770 20528 net.cpp:408] res4_8 -> res4_8
I0816 10:11:01.606808 20528 net.cpp:150] Setting up res4_8
I0816 10:11:01.606817 20528 net.cpp:157] Top shape: 1 256 12 10 (30720)
I0816 10:11:01.606822 20528 net.cpp:165] Memory required for data: 24232960
I0816 10:11:01.606827 20528 layer_factory.hpp:77] Creating layer res4_8_res4_8_0_split
I0816 10:11:01.606835 20528 net.cpp:100] Creating Layer res4_8_res4_8_0_split
I0816 10:11:01.606840 20528 net.cpp:434] res4_8_res4_8_0_split <- res4_8
I0816 10:11:01.606848 20528 net.cpp:408] res4_8_res4_8_0_split -> res4_8_res4_8_0_split_0
I0816 10:11:01.606856 20528 net.cpp:408] res4_8_res4_8_0_split -> res4_8_res4_8_0_split_1
I0816 10:11:01.606904 20528 net.cpp:150] Setting up res4_8_res4_8_0_split
I0816 10:11:01.606912 20528 net.cpp:157] Top shape: 1 256 12 10 (30720)
I0816 10:11:01.606919 20528 net.cpp:157] Top shape: 1 256 12 10 (30720)
I0816 10:11:01.606923 20528 net.cpp:165] Memory required for data: 24478720
I0816 10:11:01.606928 20528 layer_factory.hpp:77] Creating layer conv4_9
I0816 10:11:01.606940 20528 net.cpp:100] Creating Layer conv4_9
I0816 10:11:01.606946 20528 net.cpp:434] conv4_9 <- res4_8_res4_8_0_split_0
I0816 10:11:01.606956 20528 net.cpp:408] conv4_9 -> conv4_9
I0816 10:11:01.631476 20528 net.cpp:150] Setting up conv4_9
I0816 10:11:01.631497 20528 net.cpp:157] Top shape: 1 256 12 10 (30720)
I0816 10:11:01.631502 20528 net.cpp:165] Memory required for data: 24601600
I0816 10:11:01.631513 20528 layer_factory.hpp:77] Creating layer relu4_9
I0816 10:11:01.631522 20528 net.cpp:100] Creating Layer relu4_9
I0816 10:11:01.631530 20528 net.cpp:434] relu4_9 <- conv4_9
I0816 10:11:01.631537 20528 net.cpp:395] relu4_9 -> conv4_9 (in-place)
I0816 10:11:01.631685 20528 net.cpp:150] Setting up relu4_9
I0816 10:11:01.631695 20528 net.cpp:157] Top shape: 1 256 12 10 (30720)
I0816 10:11:01.631700 20528 net.cpp:165] Memory required for data: 24724480
I0816 10:11:01.631706 20528 layer_factory.hpp:77] Creating layer conv4_10
I0816 10:11:01.631718 20528 net.cpp:100] Creating Layer conv4_10
I0816 10:11:01.631724 20528 net.cpp:434] conv4_10 <- conv4_9
I0816 10:11:01.631741 20528 net.cpp:408] conv4_10 -> conv4_10
I0816 10:11:01.656285 20528 net.cpp:150] Setting up conv4_10
I0816 10:11:01.656303 20528 net.cpp:157] Top shape: 1 256 12 10 (30720)
I0816 10:11:01.656309 20528 net.cpp:165] Memory required for data: 24847360
I0816 10:11:01.656321 20528 layer_factory.hpp:77] Creating layer relu4_10
I0816 10:11:01.656329 20528 net.cpp:100] Creating Layer relu4_10
I0816 10:11:01.656335 20528 net.cpp:434] relu4_10 <- conv4_10
I0816 10:11:01.656344 20528 net.cpp:395] relu4_10 -> conv4_10 (in-place)
I0816 10:11:01.657200 20528 net.cpp:150] Setting up relu4_10
I0816 10:11:01.657217 20528 net.cpp:157] Top shape: 1 256 12 10 (30720)
I0816 10:11:01.657222 20528 net.cpp:165] Memory required for data: 24970240
I0816 10:11:01.657230 20528 layer_factory.hpp:77] Creating layer res4_10
I0816 10:11:01.657239 20528 net.cpp:100] Creating Layer res4_10
I0816 10:11:01.657246 20528 net.cpp:434] res4_10 <- res4_8_res4_8_0_split_1
I0816 10:11:01.657253 20528 net.cpp:434] res4_10 <- conv4_10
I0816 10:11:01.657261 20528 net.cpp:408] res4_10 -> res4_10
I0816 10:11:01.657300 20528 net.cpp:150] Setting up res4_10
I0816 10:11:01.657310 20528 net.cpp:157] Top shape: 1 256 12 10 (30720)
I0816 10:11:01.657315 20528 net.cpp:165] Memory required for data: 25093120
I0816 10:11:01.657320 20528 layer_factory.hpp:77] Creating layer conv4
I0816 10:11:01.657337 20528 net.cpp:100] Creating Layer conv4
I0816 10:11:01.657343 20528 net.cpp:434] conv4 <- res4_10
I0816 10:11:01.657352 20528 net.cpp:408] conv4 -> conv4
I0816 10:11:01.668210 20528 net.cpp:150] Setting up conv4
I0816 10:11:01.668229 20528 net.cpp:157] Top shape: 1 512 10 8 (40960)
I0816 10:11:01.668236 20528 net.cpp:165] Memory required for data: 25256960
I0816 10:11:01.668246 20528 layer_factory.hpp:77] Creating layer relu4
I0816 10:11:01.668256 20528 net.cpp:100] Creating Layer relu4
I0816 10:11:01.668262 20528 net.cpp:434] relu4 <- conv4
I0816 10:11:01.668270 20528 net.cpp:395] relu4 -> conv4 (in-place)
I0816 10:11:01.668428 20528 net.cpp:150] Setting up relu4
I0816 10:11:01.668438 20528 net.cpp:157] Top shape: 1 512 10 8 (40960)
I0816 10:11:01.668443 20528 net.cpp:165] Memory required for data: 25420800
I0816 10:11:01.668450 20528 layer_factory.hpp:77] Creating layer pool4
I0816 10:11:01.668462 20528 net.cpp:100] Creating Layer pool4
I0816 10:11:01.668467 20528 net.cpp:434] pool4 <- conv4
I0816 10:11:01.668475 20528 net.cpp:408] pool4 -> pool4
I0816 10:11:01.668534 20528 net.cpp:150] Setting up pool4
I0816 10:11:01.668543 20528 net.cpp:157] Top shape: 1 512 5 4 (10240)
I0816 10:11:01.668548 20528 net.cpp:165] Memory required for data: 25461760
I0816 10:11:01.668553 20528 layer_factory.hpp:77] Creating layer pool4_pool4_0_split
I0816 10:11:01.668561 20528 net.cpp:100] Creating Layer pool4_pool4_0_split
I0816 10:11:01.668567 20528 net.cpp:434] pool4_pool4_0_split <- pool4
I0816 10:11:01.668576 20528 net.cpp:408] pool4_pool4_0_split -> pool4_pool4_0_split_0
I0816 10:11:01.668584 20528 net.cpp:408] pool4_pool4_0_split -> pool4_pool4_0_split_1
I0816 10:11:01.668645 20528 net.cpp:150] Setting up pool4_pool4_0_split
I0816 10:11:01.668653 20528 net.cpp:157] Top shape: 1 512 5 4 (10240)
I0816 10:11:01.668660 20528 net.cpp:157] Top shape: 1 512 5 4 (10240)
I0816 10:11:01.668665 20528 net.cpp:165] Memory required for data: 25543680
I0816 10:11:01.668670 20528 layer_factory.hpp:77] Creating layer conv5_1
I0816 10:11:01.668695 20528 net.cpp:100] Creating Layer conv5_1
I0816 10:11:01.668701 20528 net.cpp:434] conv5_1 <- pool4_pool4_0_split_0
I0816 10:11:01.668710 20528 net.cpp:408] conv5_1 -> conv5_1
I0816 10:11:01.763094 20528 net.cpp:150] Setting up conv5_1
I0816 10:11:01.763119 20528 net.cpp:157] Top shape: 1 512 5 4 (10240)
I0816 10:11:01.763128 20528 net.cpp:165] Memory required for data: 25584640
I0816 10:11:01.763155 20528 layer_factory.hpp:77] Creating layer relu5_1
I0816 10:11:01.763170 20528 net.cpp:100] Creating Layer relu5_1
I0816 10:11:01.763176 20528 net.cpp:434] relu5_1 <- conv5_1
I0816 10:11:01.763185 20528 net.cpp:395] relu5_1 -> conv5_1 (in-place)
I0816 10:11:01.763366 20528 net.cpp:150] Setting up relu5_1
I0816 10:11:01.763376 20528 net.cpp:157] Top shape: 1 512 5 4 (10240)
I0816 10:11:01.763381 20528 net.cpp:165] Memory required for data: 25625600
I0816 10:11:01.763389 20528 layer_factory.hpp:77] Creating layer conv5_2
I0816 10:11:01.763404 20528 net.cpp:100] Creating Layer conv5_2
I0816 10:11:01.763411 20528 net.cpp:434] conv5_2 <- conv5_1
I0816 10:11:01.763420 20528 net.cpp:408] conv5_2 -> conv5_2
I0816 10:11:01.855199 20528 net.cpp:150] Setting up conv5_2
I0816 10:11:01.855221 20528 net.cpp:157] Top shape: 1 512 5 4 (10240)
I0816 10:11:01.855226 20528 net.cpp:165] Memory required for data: 25666560
I0816 10:11:01.855239 20528 layer_factory.hpp:77] Creating layer relu5_2
I0816 10:11:01.855248 20528 net.cpp:100] Creating Layer relu5_2
I0816 10:11:01.855255 20528 net.cpp:434] relu5_2 <- conv5_2
I0816 10:11:01.855263 20528 net.cpp:395] relu5_2 -> conv5_2 (in-place)
I0816 10:11:01.855414 20528 net.cpp:150] Setting up relu5_2
I0816 10:11:01.855424 20528 net.cpp:157] Top shape: 1 512 5 4 (10240)
I0816 10:11:01.855429 20528 net.cpp:165] Memory required for data: 25707520
I0816 10:11:01.855437 20528 layer_factory.hpp:77] Creating layer res5_2
I0816 10:11:01.855448 20528 net.cpp:100] Creating Layer res5_2
I0816 10:11:01.855456 20528 net.cpp:434] res5_2 <- pool4_pool4_0_split_1
I0816 10:11:01.855463 20528 net.cpp:434] res5_2 <- conv5_2
I0816 10:11:01.855480 20528 net.cpp:408] res5_2 -> res5_2
I0816 10:11:01.855520 20528 net.cpp:150] Setting up res5_2
I0816 10:11:01.855528 20528 net.cpp:157] Top shape: 1 512 5 4 (10240)
I0816 10:11:01.855533 20528 net.cpp:165] Memory required for data: 25748480
I0816 10:11:01.855540 20528 layer_factory.hpp:77] Creating layer res5_2_res5_2_0_split
I0816 10:11:01.855551 20528 net.cpp:100] Creating Layer res5_2_res5_2_0_split
I0816 10:11:01.855556 20528 net.cpp:434] res5_2_res5_2_0_split <- res5_2
I0816 10:11:01.855562 20528 net.cpp:408] res5_2_res5_2_0_split -> res5_2_res5_2_0_split_0
I0816 10:11:01.855571 20528 net.cpp:408] res5_2_res5_2_0_split -> res5_2_res5_2_0_split_1
I0816 10:11:01.855625 20528 net.cpp:150] Setting up res5_2_res5_2_0_split
I0816 10:11:01.855633 20528 net.cpp:157] Top shape: 1 512 5 4 (10240)
I0816 10:11:01.855640 20528 net.cpp:157] Top shape: 1 512 5 4 (10240)
I0816 10:11:01.855645 20528 net.cpp:165] Memory required for data: 25830400
I0816 10:11:01.855650 20528 layer_factory.hpp:77] Creating layer conv5_3
I0816 10:11:01.855664 20528 net.cpp:100] Creating Layer conv5_3
I0816 10:11:01.855670 20528 net.cpp:434] conv5_3 <- res5_2_res5_2_0_split_0
I0816 10:11:01.855680 20528 net.cpp:408] conv5_3 -> conv5_3
I0816 10:11:01.975719 20528 net.cpp:150] Setting up conv5_3
I0816 10:11:01.975790 20528 net.cpp:157] Top shape: 1 512 5 4 (10240)
I0816 10:11:01.975801 20528 net.cpp:165] Memory required for data: 25871360
I0816 10:11:01.975821 20528 layer_factory.hpp:77] Creating layer relu5_3
I0816 10:11:01.975843 20528 net.cpp:100] Creating Layer relu5_3
I0816 10:11:01.975857 20528 net.cpp:434] relu5_3 <- conv5_3
I0816 10:11:01.975872 20528 net.cpp:395] relu5_3 -> conv5_3 (in-place)
I0816 10:11:01.976116 20528 net.cpp:150] Setting up relu5_3
I0816 10:11:01.976133 20528 net.cpp:157] Top shape: 1 512 5 4 (10240)
I0816 10:11:01.976142 20528 net.cpp:165] Memory required for data: 25912320
I0816 10:11:01.976155 20528 layer_factory.hpp:77] Creating layer conv5_4
I0816 10:11:01.976181 20528 net.cpp:100] Creating Layer conv5_4
I0816 10:11:01.976191 20528 net.cpp:434] conv5_4 <- conv5_3
I0816 10:11:01.976205 20528 net.cpp:408] conv5_4 -> conv5_4
I0816 10:11:02.111183 20528 net.cpp:150] Setting up conv5_4
I0816 10:11:02.111251 20528 net.cpp:157] Top shape: 1 512 5 4 (10240)
I0816 10:11:02.111263 20528 net.cpp:165] Memory required for data: 25953280
I0816 10:11:02.111291 20528 layer_factory.hpp:77] Creating layer relu5_4
I0816 10:11:02.111312 20528 net.cpp:100] Creating Layer relu5_4
I0816 10:11:02.111330 20528 net.cpp:434] relu5_4 <- conv5_4
I0816 10:11:02.111348 20528 net.cpp:395] relu5_4 -> conv5_4 (in-place)
I0816 10:11:02.111611 20528 net.cpp:150] Setting up relu5_4
I0816 10:11:02.111629 20528 net.cpp:157] Top shape: 1 512 5 4 (10240)
I0816 10:11:02.111637 20528 net.cpp:165] Memory required for data: 25994240
I0816 10:11:02.111650 20528 layer_factory.hpp:77] Creating layer res5_4
I0816 10:11:02.111668 20528 net.cpp:100] Creating Layer res5_4
I0816 10:11:02.111682 20528 net.cpp:434] res5_4 <- res5_2_res5_2_0_split_1
I0816 10:11:02.111693 20528 net.cpp:434] res5_4 <- conv5_4
I0816 10:11:02.111706 20528 net.cpp:408] res5_4 -> res5_4
I0816 10:11:02.111778 20528 net.cpp:150] Setting up res5_4
I0816 10:11:02.111795 20528 net.cpp:157] Top shape: 1 512 5 4 (10240)
I0816 10:11:02.111804 20528 net.cpp:165] Memory required for data: 26035200
I0816 10:11:02.111812 20528 layer_factory.hpp:77] Creating layer res5_4_res5_4_0_split
I0816 10:11:02.111825 20528 net.cpp:100] Creating Layer res5_4_res5_4_0_split
I0816 10:11:02.111835 20528 net.cpp:434] res5_4_res5_4_0_split <- res5_4
I0816 10:11:02.111848 20528 net.cpp:408] res5_4_res5_4_0_split -> res5_4_res5_4_0_split_0
I0816 10:11:02.111862 20528 net.cpp:408] res5_4_res5_4_0_split -> res5_4_res5_4_0_split_1
I0816 10:11:02.111951 20528 net.cpp:150] Setting up res5_4_res5_4_0_split
I0816 10:11:02.111969 20528 net.cpp:157] Top shape: 1 512 5 4 (10240)
I0816 10:11:02.111981 20528 net.cpp:157] Top shape: 1 512 5 4 (10240)
I0816 10:11:02.111989 20528 net.cpp:165] Memory required for data: 26117120
I0816 10:11:02.112009 20528 layer_factory.hpp:77] Creating layer conv5_5
I0816 10:11:02.112033 20528 net.cpp:100] Creating Layer conv5_5
I0816 10:11:02.112043 20528 net.cpp:434] conv5_5 <- res5_4_res5_4_0_split_0
I0816 10:11:02.112056 20528 net.cpp:408] conv5_5 -> conv5_5
I0816 10:11:02.242589 20528 net.cpp:150] Setting up conv5_5
I0816 10:11:02.242651 20528 net.cpp:157] Top shape: 1 512 5 4 (10240)
I0816 10:11:02.242662 20528 net.cpp:165] Memory required for data: 26158080
I0816 10:11:02.242683 20528 layer_factory.hpp:77] Creating layer relu5_5
I0816 10:11:02.242712 20528 net.cpp:100] Creating Layer relu5_5
I0816 10:11:02.242725 20528 net.cpp:434] relu5_5 <- conv5_5
I0816 10:11:02.242751 20528 net.cpp:395] relu5_5 -> conv5_5 (in-place)
I0816 10:11:02.243006 20528 net.cpp:150] Setting up relu5_5
I0816 10:11:02.243029 20528 net.cpp:157] Top shape: 1 512 5 4 (10240)
I0816 10:11:02.243038 20528 net.cpp:165] Memory required for data: 26199040
I0816 10:11:02.243053 20528 layer_factory.hpp:77] Creating layer conv5_6
I0816 10:11:02.243089 20528 net.cpp:100] Creating Layer conv5_6
I0816 10:11:02.243101 20528 net.cpp:434] conv5_6 <- conv5_5
I0816 10:11:02.243118 20528 net.cpp:408] conv5_6 -> conv5_6
I0816 10:11:02.367660 20528 net.cpp:150] Setting up conv5_6
I0816 10:11:02.367707 20528 net.cpp:157] Top shape: 1 512 5 4 (10240)
I0816 10:11:02.367714 20528 net.cpp:165] Memory required for data: 26240000
I0816 10:11:02.367727 20528 layer_factory.hpp:77] Creating layer relu5_6
I0816 10:11:02.367746 20528 net.cpp:100] Creating Layer relu5_6
I0816 10:11:02.367754 20528 net.cpp:434] relu5_6 <- conv5_6
I0816 10:11:02.367764 20528 net.cpp:395] relu5_6 -> conv5_6 (in-place)
I0816 10:11:02.367929 20528 net.cpp:150] Setting up relu5_6
I0816 10:11:02.367940 20528 net.cpp:157] Top shape: 1 512 5 4 (10240)
I0816 10:11:02.367945 20528 net.cpp:165] Memory required for data: 26280960
I0816 10:11:02.367954 20528 layer_factory.hpp:77] Creating layer res5_6
I0816 10:11:02.367964 20528 net.cpp:100] Creating Layer res5_6
I0816 10:11:02.367972 20528 net.cpp:434] res5_6 <- res5_4_res5_4_0_split_1
I0816 10:11:02.367980 20528 net.cpp:434] res5_6 <- conv5_6
I0816 10:11:02.367987 20528 net.cpp:408] res5_6 -> res5_6
I0816 10:11:02.368072 20528 net.cpp:150] Setting up res5_6
I0816 10:11:02.368088 20528 net.cpp:157] Top shape: 1 512 5 4 (10240)
I0816 10:11:02.368093 20528 net.cpp:165] Memory required for data: 26321920
I0816 10:11:02.368098 20528 layer_factory.hpp:77] Creating layer fc5
I0816 10:11:02.368109 20528 net.cpp:100] Creating Layer fc5
I0816 10:11:02.368115 20528 net.cpp:434] fc5 <- res5_6
I0816 10:11:02.368124 20528 net.cpp:408] fc5 -> fc5
I0816 10:11:02.410684 20528 net.cpp:150] Setting up fc5
I0816 10:11:02.410722 20528 net.cpp:157] Top shape: 1 512 (512)
I0816 10:11:02.410728 20528 net.cpp:165] Memory required for data: 26323968
I0816 10:11:02.410748 20528 net.cpp:228] fc5 does not need backward computation.
I0816 10:11:02.410753 20528 net.cpp:228] res5_6 does not need backward computation.
I0816 10:11:02.410760 20528 net.cpp:228] relu5_6 does not need backward computation.
I0816 10:11:02.410765 20528 net.cpp:228] conv5_6 does not need backward computation.
…
